app/src/main/ml/arousal_model.tflite (tflite, 162792 bytes, 78 tensors)

fusion_32/bias f4 [32]
-0.07246541 -0.0025068326 -0.048549563 -0.043708794 0.0 -0.003224709 -0.05716165 -0.009187756
-0.03218715 0.018756561 0.032699544 -0.05556414 -0.028698664 0.12140468 0.00062177255 -0.014742093
-0.010741008 -0.018869434 -3.5432226e-05 0.1528036 -0.010277532 0.080521196 0.04437598 0.090055995
0.0050362037 -0.014533723 -0.031163624 -0.027799094 0.19256452 -0.020274524 -0.04226286 0.01329221
00000000: bf68 94bd ac49 24bb e8db 46bd fe07 33bd
00000010: 0000 0000 a455 53bb 5622 6abd 3e88 16bc
00000020: acd6 03bd 5ca7 993c f5ef 053d 3997 63bd
00000030: 7619 ebbc 04a3 f83d 73fe 223a d288 71bc
00000040: 0efb 2fbc 1294 9abc 109d 14b8 8c78 1c3e
00000050: 1863 28bc 4ce8 a43d 96c3 353d 476f b83d
00000060: bd06 a53b da1e 6ebc db4a ffbc edba e3bc
00000070: a22f 453e c216 a6bc d21b 2dbd 92c7 593c

fusion_16/bias f4 [16]
-0.051577166 -0.04070299 0.05866901 0.0019340204 -0.0030716734 0.017090205 -0.025131142 -0.0174407
0.007733193 0.11651955 -0.034668796 -0.007058433 0.012607613 0.11254614 0.07413828 0.12985232
00000000: 9442 53bd 2eb8 26bd ea4e 703d f57e fd3a
00000010: 214e 49bb c200 8c3c d3df cdbc cddf 8ebc
00000020: ba66 fd3b cda1 ee3d de00 0ebd 6d4a e7bb
00000030: 2990 4e3c 977e e63d cfd5 973d 02f8 043e

dense_2_categorical/bias f4 [8]
0.012761094 -0.018903682 -0.048065744 0.08912773 0.00019818157 0.050681543 -0.02527597 -0.025195805
00000000: e813 513c e5db 9abc 96e0 44bd 9988 b63d
00000010: f6ce 4f39 7397 4f3d 8d0f cfbc 6f67 cebc

dense_1_categorical/bias f4 [16]
0.06795811 -0.028024495 0.0025649478 -0.045503754 -0.015954448 0.010114468 -0.02717321 0.0331807
0.043359667 0.10287762 -0.08989701 -0.015647616 -0.02999602 0.012420039 -0.032367833 0.011112867
00000000: 9f2d 8b3d a093 e5bc af18 283b 2562 3abd
00000010: e7b2 82bc 27b7 253c 5a9a debc 7ce8 073d
00000020: e899 313d 80b1 d23d ec1b b8bd 6e2f 80bc
00000030: 37ba f5bc 6b7d 4b3c 2294 04bd be12 363c

emotion_recognition_model/tmp_representation/block_4_conv7/Conv1D f4 [2]
0.0 0.0
00000000: 0000 0000 0000 0000

emotion_recognition_model/acc_representation/bottleneck/MatMul f4 [40, 32]
0.22938609 0.24117756 -0.14345157 0.127693 0.05299771 0.13953596 -0.16656724 -0.17418286
0.16530642 -0.25808626 0.14837486 0.13219792 -0.09286021 0.19845617 0.21512622 0.2775879
0.26385307 0.0864321 -0.1694151 0.21276641 0.06980649 0.176889 0.07094714 0.26469976
0.05201283 -0.24610484 0.1961163 0.13132975 -0.24820697 0.062960476 -0.07615337 0.28053206
-0.074139744 -0.15677069 0.14505011 0.064388275 0.18847701 -0.04198529 -0.17296478 0.18095824
0.19624096 0.26217133 -0.2692543 -0.06968886 0.03942883 -0.16317965 -0.2525906 0.15012449
-0.120817885 -0.055824444 0.109532714 -0.121849924 0.22225082 0.19253036 -0.21410999 -0.28810394
0.13274589 -0.24208906 0.0111398995 0.23909086 -0.11789763 -0.21607405 -0.14256242 -0.077356994
-0.008278608 0.27546054 0.19692439 -0.0039168 0.18681923 0.1013495 -0.21071398 -0.12307757
0.19482899 0.110072106 0.19368511 0.043044776 0.14691871 -0.20756522 0.09707585 -0.1573299
-0.19485536 0.06697935 0.07113221 -0.2873782 -0.1310627 0.14031574 -0.02093941 -0.053052425
0.037962914 0.07114789 0.1274389 0.011897802 -0.21252891 -0.28779492 0.2656873 0.13375545
0.25423926 -0.21188939 0.18740231 0.061423957 -0.091446534 0.054449648 -0.16888025 -0.17868727
0.13072497 0.27305984 0.03765422 0.16011843 -0.14015573 0.004528016 -0.028181642 -0.2505639
0.044959366 -0.03105393 0.17265362 -0.1261405 -0.015467584 -0.009578317 -0.10919519 0.21920925
0.13053358 0.16655645 -0.072794616 0.18385234 0.21106803 -0.08943559 -0.12870681 -0.11584772
0.047652364 0.08689538 0.27019626 -0.2399477 0.23570716 0.20194769 0.041925818 -0.2620815
-0.24498744 -0.26860905 0.08243433 -0.2569957 0.01879412 -0.00056415796 -0.060739204 0.25085014
0.23719156 -0.26743847 0.02689156 0.1177215 0.26157922 0.21482539 -0.10399149 0.24671537
0.27902305 0.06355837 0.2566023 -0.26355204 0.22834396 0.044543177 -0.19785607 -0.0021913946
0.08885354 0.00057923794 0.21119645 -0.1341527 -0.17497867 -0.06919056 -0.28389624 -0.2686756
-0.2645911 0.1119661 -0.28724432 -0.09573078 -0.15117228 -0.14875534 -0.13516676 0.23856223
-0.012365341 -0.25533777 -0.003990978 -0.12615944 -0.25890493 -0.04257147 -0.07823017 -0.2685396
0.13030204 -0.13021126 -0.23013365 -0.031349123 -0.007630408 -0.09882414 -0.28196025 0.07429397
-0.10056481 0.20684537 0.093664974 0.2743767 -0.2716554 -0.006590098 -0.1941596 -0.04634139
0.24273908 0.25444806 0.15485513 0.19000041 0.060759038 0.006432086 0.20260698 -0.0358409
-0.052770242 0.23228586 -0.27396637 0.2551682 -0.18386543 0.03496495 -0.23256265 0.08430162
0.19912314 -0.22358787 0.11781517 -0.066579595 -0.021769702 -0.08601022 0.19181842 -0.24393332
-0.024766922 0.032207787 -0.1507102 0.16919768 0.2719298 0.00028190017 0.043082237 -0.021412373
-0.043590426 -0.14389522 -0.13553499 0.13523692 0.22121751 0.24356419 0.07293701 -0.067883566
-0.13339692 0.12617996 -0.20532751 0.23763508 -0.078344494 -0.16921675 -0.038442492 0.15626639
0.08853823 0.22280228 0.030301452 0.13258362 0.22423345 0.11474472 0.2304259 -0.16018692
00000000: 30e4 6a3e 40f7 763e f8e4 12be f4c1 023e
00000010: 2014 593d 84e2 0e3e 9a90 2abe fe5c 32be
00000020: 1646 293e e223 84be 94ef 173e e45e 073e
00000030: 7e2d bebd 1838 4b3e 0c4a 5c3e 0020 8e3e
00000040: c017 873e 5003 b13d 277b 2dbe 70df 593e
00000050: b4f6 8e3d 6422 353e bc4c 913d ba86 873e
00000060: 680b 553d e802 7cbe b6d2 483e 4e7b 063e
00000070: f829 7ebe 6cf1 803d 4cf6 9bbd e6a1 8f3e
00000080: 94d6 97bd 7f88 20be 0488 143e 00de 833d
00000090: 1e00 413e c4f8 2bbd ae1d 31be 1e4d 393e
000000a0: 64f3 483e 523b 863e b3db 89be 08b9 8ebd
000000b0: 2080 213d 9118 27be 8e53 81be 3cba 193e
000000c0: 5e6f f7bd 2ca8 64bd b052 e03d 748c f9bd
000000d0: b895 633e ae26 453e a63f 5bbe 5c82 93be
000000e0: 8aee 073e 32e6 77be 2084 363c 3cd4 743e
000000f0: 5074 f1bd 8442 5dbe e2fb 11be 586d 9ebd
00000100: 00a3 07bc 2a09 8d3e 8ca6 493e 8058 80bb
00000110: 8a4d 3f3e 5490 cf3d 68c5 57be 1810 fcbd
00000120: 4081 473e 7c6d e13d 6455 463e b84f 303d
00000130: dc71 163e fa8b 54be b4cf c63d 171b 21be
00000140: 2a88 47be 782c 893d c4ad 913d 3c23 93be
00000150: 4d35 06be eeae 0f3e 2089 abbc 804d 59bd
00000160: 007f 1b3d fcb5 913d 587f 023e 00ef 423c
00000170: 2ea1 59be db59 93be 2a08 883e 30f7 083e
00000180: a62b 823e 88f9 58be 64e6 3f3e b097 7b3d
00000190: 5248 bbbd 9806 5f3d f2ee 2cbe ccf9 36be
000001a0: c4dc 053e 80ce 8b3e 503b 1a3d 16f6 233e
000001b0: fc84 0fbe c05f 943b 30dd e6bc e949 80be
000001c0: 5027 383d d064 febc 1ccc 303e fa2a 01be
000001d0: c06b 7dbc 60ee 1cbc baa1 dfbd 6478 603e
000001e0: 98aa 053e c68d 2a3e 5815 95bd ca43 3c3e
000001f0: 3822 583e 022a b7bd b8cb 03be 9241 edbd
00000200: 202f 433d 34f6 b13d 2a57 8a3e dab4 75be
00000210: 385d 713e 60cb 4e3e 68ba 2b3d 8c2f 86be
00000220: fddd 7abe 2087 89be 54d3 a83d f194 83be
00000230: 20f6 993c 00e4 13ba acc9 78bd 6e6f 803e
00000240: 58e2 723e b2ed 88be b04b dc3c f817 f13d
00000250: b6ed 853e 30fb 5b3e 7ef9 d4bd f4a2 7c3e
00000260: 1cdc 8e3e e42a 823d 6061 833e 4bf0 86be
00000270: 00d3 693e e872 363d c89a 4abe 809d 0fbb
00000280: d8f8 b53d 00d8 173a e243 583e 535f 09be
00000290: 9c2d 33be c8b3 8dbd d95a 91be d98f 89be
000002a0: 7c78 87be 7c4e e53d b011 93be 800e c4bd
000002b0: e8cc 1abe 5253 18be 2869 0abe a849 743e
000002c0: 0098 4abc a2bb 82be c0c6 82bb f12f 01be
000002d0: 308f 84be 6c5f 2ebd 2437 a0bd 067e 89be
000002e0: e66d 053e 1a56 05be 28a8 6bbe f067 00bd
000002f0: 8008 fabb 5064 cabd 185d 90be 7027 983d
00000300: ecf4 cdbd 46cf 533e 6cd3 bf3d 1a7b 8c3e
00000310: 6b16 8bbe c0f1 d7bb c6d1 46be 78d0 3dbd
00000320: 9890 783e 0447 823e 5892 1e3e 788f 423e
00000330: 78de 783d 40c4 d23b 3478 4f3e e8cd 12bd
00000340: 9c25 58bd 58dc 6d3e 5245 8cbe 68a5 823e
00000350: 3847 3cbe 6837 0f3d e724 6ebe 54a6 ac3d
00000360: f0e6 4b3e 38f4 64be 1449 f13d e25a 88bd
00000370: 6056 b2bc 2026 b0bd 0c6c 443e a8c9 79be
00000380: 00e4 cabc 50ec 033d c653 1abe 2842 2d3e
00000390: 623a 8b3e 00cc 9339 0077 303d 0069 afbc
000003a0: e08b 32bd 4559 13be afc9 0abe 8c7b 0a3e
000003b0: d886 623e e468 793e 0060 953d 8a06 8bbd
000003c0: 3499 08be 5235 013e 6041 52be 9c56 733e
000003d0: 1473 a0bd 2847 2dbe e075 1dbd 4c04 203e
000003e0: 8853 b53d 4826 643e c03a f83c 00c4 073e
000003f0: 749d 653e 48ff ea3d c4f4 6b3e 0a08 24be

emotion_recognition_model/bvp_representation/bottleneck/MatMul f4 [40, 32]
0.1622079 -0.21163046 -0.14996707 -0.13121584 -0.077112034 -0.15617149 0.18329254 -0.275955
0.16929623 0.24334168 0.031318486 0.17557725 -0.068893716 0.013489664 -0.004119903 0.009213179
0.14460301 -0.28202507 0.11679062 -0.061655417 -0.14585118 -0.021081746 -0.099985436 -0.24118091
0.21507293 0.25555885 -0.2465014 -0.04552491 -0.10709512 -0.006207794 0.12222752 0.2833327
-0.112492755 0.22163534 0.1952334 0.14998862 0.04658112 -0.00043657422 0.10455808 0.138949
0.26447195 0.052712917 0.044332296 0.10087034 -0.04260987 0.019999951 -0.009998083 0.11097923
-0.15590115 -0.13193445 0.0751867 -0.2263526 -0.13227624 0.17134234 0.15696573 -0.16185263
0.077528775 -0.20707422 0.10378811 -0.17926177 -0.27238682 -0.23815706 0.01844716 -0.12625985
0.121884555 0.28206396 0.1542075 -0.013897926 0.15163341 -0.08405921 0.07517624 0.28039747
-0.28573284 -0.12562728 0.14197746 -0.042168573 -0.19573736 0.14858466 -0.010296077 0.17463028
0.17156431 0.0532538 0.26945138 -0.09179382 -0.26075494 -0.013575554 0.1026375 -0.15354504
-0.060235128 0.018181026 0.03846556 -0.24613181 0.016922057 0.25807387 -0.15851012 0.03826788
0.14207175 -0.19123259 0.12296119 0.27074647 0.27301848 0.28192574 -0.026823223 0.017607838
-0.19138518 0.23221731 -0.016103178 0.092190534 -0.22888744 -0.14456847 -0.0023692548 -0.14877509
0.19043222 0.103317976 -0.12374367 0.13431278 0.046467006 0.13762647 0.23881364 -0.028101265
0.25717658 -0.24044222 -0.10520792 -0.18793894 -0.10914454 -0.14535749 -0.008177787 0.08611545
0.27185154 0.09641662 -0.23240656 -0.019399643 -0.0054785907 -0.18537807 0.09511039 0.081367314
-0.11237733 0.032526672 0.11586177 0.083966315 -0.269256 0.009801984 -0.15413529 0.107828796
0.22378087 0.1199182 0.23417073 0.2249273 -0.1566057 -0.0036505163 -0.15691571 0.08712801
0.09382665 0.2795055 -0.018696874 -0.20644172 -0.023971647 0.13256764 0.07951048 -0.098710924
-0.07142946 0.23192817 -0.1588605 0.2336644 0.12298155 0.04275331 0.21234345 -0.1972562
0.13153705 0.20887145 0.18884373 0.15652978 0.06923777 0.044490248 -0.24571878 -0.09862159
0.17794934 -0.18825555 0.016104698 -0.013857454 -0.069332 0.16234508 -0.1771122 0.14643916
0.011420697 0.21538013 0.16515982 -0.10674362 0.03907907 0.16653448 0.10488629 -0.06758253
0.115734726 0.13684645 0.05156353 -0.14341 0.07262379 0.10212055 0.13678348 0.12047914
0.16356686 -0.25843135 -0.25784832 -0.20606118 0.07058683 0.0534589 -0.2173147 0.25548446
0.19918552 0.018360376 0.18669486 0.023028046 0.1486044 -0.11574566 0.0095792115 -0.123559356
-0.06453507 -0.24734631 0.24910474 0.25684375 0.15530938 -0.07702607 0.23699105 -0.11135322
-0.28308368 -0.08970882 0.1221191 0.05600828 -0.06752196 0.047973186 -0.2057099 -0.06893143
0.10545534 -0.2296024 0.030572563 0.24482673 -0.018853933 0.05504507 0.05202183 -0.08118135
0.1703037 -0.13266475 0.22515959 0.22809774 0.068924636 -0.20551401 -0.1227832 -0.082063824
0.24905145 0.061668426 0.25205177 -0.01536268 -0.26590118 0.15287095 -0.10647775 0.1341269
00000000: d419 263e a8b5 58be f890 19be 725d 06be
00000010: eaec 9dbd 6beb 1fbe 0ab1 3b3e f949 8dbe
00000020: fe5b 2d3e 902e 793e d047 003d 86ca 333e
00000030: 2618 8dbd c003 5d3c 4000 87bb e0f2 163c
00000040: d012 143e 9765 90be ec2f ef3d 648a 7cbd
00000050: 035a 15be a0b3 acbc 2ac5 ccbd 21f8 76be
00000060: 143c 5c3e 9cd8 823e dd6a 7cbe 5478 3abd
00000070: b054 dbbd c06a cbbb 6c52 fa3d fc10 913e
00000080: 9a62 e6bd 60f4 623e 44eb 473e 9e96 193e
00000090: d8cb 3e3d 00e4 e4b9 8c22 d63d a648 0e3e
000000a0: de68 873e 80e9 573d c895 353d 1c95 ce3d
000000b0: b087 2ebd f0d6 a33c 00cf 23bc 1449 e33d
000000c0: 8da4 1fbe d319 07be 7cfb 993d fac8 67be
000000d0: 6c73 07be 5e74 2f3e a0bb 203e b2bc 25be
000000e0: 68c7 9e3d 440b 54be dc8e d43d 6690 37be
000000f0: 4976 8bbe 72df 73be 801e 973c 434a 01be
00000100: 9c9e f93d b06a 903e 92e8 1d3e 20b4 63bc
00000110: ca45 1b3e 3c27 acbd 00f6 993d 4290 8f3e
00000120: 934b 92be 70a4 00be 8a62 113e f4b8 2cbd
00000130: 606f 48be 9426 183e e0b0 28bc 48d2 323e
00000140: 8eae 2f3e a820 5a3d 88f5 893e 66fe bbbd
00000150: ac81 85be 006c 5ebc 9c33 d23d e93a 1dbe
00000160: 1cb9 76bd 60f0 943c 108e 1d3d fa09 7cbe
00000170: 20a0 8a3c 4222 843e 7a50 22be c8be 1c3d
00000180: 427b 113e 7ad2 43be 14d3 fb3d 489f 8a3e
00000190: 14c9 8b3e 9258 903e 60bc dbbc 503e 903c
000001a0: 7afa 43be 60ca 6d3e d0ea 83bc 64ce bc3d
000001b0: 7861 6abe c209 14be 8045 1bbb 7f58 18be
000001c0: aa00 433e 6098 d33d 526d fdbd 4a89 093e
000001d0: 3054 3e3d f4ed 0c3e 908b 743e a034 e6bc
000001e0: a6ac 833e 7c36 76be 4077 d7bd 1173 40be
000001f0: 2c87 dfbd 98d8 14be 20fc 05bc 4c5d b03d
00000200: 2030 8b3e 1476 c53d fcfb 6dbe 00ec 9ebc
00000210: c085 b3bb c0d3 3dbe 3cc9 c23d e8a3 a63d
00000220: 1626 e6bd b03a 053d f048 ed3d 88f6 ab3d
00000230: ecdb 89be 8098 203c a4d5 1dbe 58d5 dc3d
00000240: d026 653e ac97 f53d 74ca 6f3e 5853 663e
00000250: 3f5d 20be 803d 6fbb 83ae 20be 2c70 b23d
00000260: 3028 c03d 581b 8f3e 302a 99bc 7565 53be
00000270: 3060 c4bc d0bf 073e 64d6 a23d f428 cabd
00000280: 9c49 92bd 947e 6d3e 54ac 22be b845 6f3e
00000290: c0dd fb3d 181e 2f3d 9070 593e 87fd 49be
000002a0: a6b1 063e 66e2 553e 4060 413e 5849 203e
000002b0: 88cc 8d3d 683b 363d b49d 7bbe 1efa c9bd
000002c0: 5a38 363e 10c6 40be 00ee 833c 600a 63bc
000002d0: f0fd 8dbd ca3d 263e e75c 35be 26f4 153e
000002e0: e01d 3b3c 9c8c 5c3e a81f 293e 669c dabd
000002f0: 6011 203d 0488 2a3e a0ce d63d b668 8abd
00000300: 5406 ed3d 7a21 0c3e 4834 533d 12da 12be
00000310: c8bb 943d 9424 d13d f810 0c3e c4bd f63d
00000320: 127e 273e 1d51 84be b204 84be b401 53be
00000330: d48f 903d b8f7 5a3d bf87 5ebe dcce 823e
00000340: 4af7 4b3e 8068 963c f02c 3f3e 50a5 bc3c
00000350: c02b 183e 100c edbd 20f2 1c3c b00c fdbd
00000360: f62a 84bd 5a48 7dbe 5015 7f3e 0681 833e
00000370: 6c09 1f3e d8bf 9dbd c8ad 723e 280d e4bd
00000380: 58f0 90be 42b9 b7bd 9419 fa3d f068 653d
00000390: f448 8abd 887f 443d 9ea5 52be ec2b 8dbd
000003a0: f8f8 d73d e41c 6bbe 5073 fa3c dcb3 7a3e
000003b0: 9073 9abc f076 613d d814 553d 6842 a6bd
000003c0: 1864 2e3e 45d9 07be 3c90 663e 7492 693e
000003d0: 5c28 8d3d 4472 52be c275 fbbd 1411 a8bd
000003e0: 5807 7f3e 0898 7c3d ee0c 813e c0b3 7bbc
000003f0: 3324 88be 348a 1c3e 0211 dabd 9058 093e

emotion_recognition_model/eda_representation/bottleneck/MatMul f4 [40, 32]
0.14276785 0.13619614 -0.07765108 0.26031548 -0.06716186 0.23217088 0.13554683 0.07926875
0.111435324 -0.18948546 0.07598218 0.04327905 -0.22377893 -0.1685256 0.26045048 0.0014696419
-0.051526904 0.20886981 -0.05005218 -0.1411261 -0.048659846 0.13460144 0.08861497 0.10320896
0.1667921 0.2017492 -0.21746185 0.038099885 0.06746298 -0.18578663 0.18569791 0.27738804
0.16799116 -0.22404853 0.005334586 0.0077593923 -0.20237929 0.16580087 0.06563002 -0.28453362
0.22287309 0.27126783 -0.09684363 0.06764001 -0.046345174 0.17663202 -0.07922828 -0.03503844
0.23612082 -0.22610468 0.043462753 -0.24319723 0.28453743 -0.11278808 0.2547654 0.18330285
-0.17295039 0.11169377 -0.17005208 0.12876916 0.22698915 -0.25461593 0.17671874 0.1402564
0.11038008 0.050034553 -0.2206601 0.1920026 -0.075963885 0.21027935 -0.10468808 -0.120051175
0.19906873 -0.23234908 0.079405636 -0.108260676 -0.16261941 0.2056236 -0.10757434 -0.21511021
0.09613603 -0.18809724 0.25518525 -0.08039825 -0.28523228 0.026495695 0.1803585 0.1998916
-0.17026772 0.24661732 0.1205973 0.19529915 -0.14190184 -0.10370676 -0.11592983 0.20122164
0.17790824 -0.18726315 0.25139308 -0.24051675 0.28023148 -0.064997986 0.24104631 -0.19097078
0.20195106 -0.13170278 0.16665569 -0.15472609 -0.14653276 -0.09306215 -0.13507254 -0.0583608
0.28274876 0.09934446 -0.19826518 -0.15099691 -0.17849958 0.2763253 0.23741752 0.2478143
-0.07073246 0.28235507 0.06636405 0.12821183 0.19077346 0.25355214 -0.19699913 0.28050023
0.13564023 0.06793222 0.27580303 0.07854155 -0.061810613 -0.16521282 0.0014770627 -0.14804678
-0.120560616 0.06199962 0.17511785 -0.23922276 0.27479333 -0.2767397 0.054373473 -0.04731679
-0.18144476 -0.23572677 0.07869241 0.21783018 0.19034961 0.16649622 -0.24587509 -0.13836667
0.026026785 0.26403862 -0.11848733 -0.15390038 -0.1008196 0.081894934 -0.008232504 0.13695267
-0.0050224066 -0.20653099 0.041580647 0.28089708 -0.17897904 0.27729636 -0.15525219 0.045604557
-0.107283145 0.15509602 -0.2622352 0.18779352 0.1718368 0.22367007 -0.07484679 0.10971433
0.16924918 -0.1513767 -0.05276157 -0.19354086 -0.011045337 -0.25126627 -0.11715327 0.1903212
-0.2426438 -0.25881648 0.22105557 -0.24450319 -0.17925957 -0.0013335645 -0.15543863 0.042467892
-0.105645105 -0.16918688 -0.226572 -0.25600675 0.12273702 0.059949428 -0.108455926 0.036591977
-0.20553887 0.24726194 0.004991859 0.11613038 -0.2648211 -0.020565748 -0.16919526 -0.1930573
0.20270738 -0.12105733 -0.07960862 0.0985882 0.027810752 -0.20899783 -0.18629035 -0.15385255
-0.06587662 -0.03798288 -0.0110399425 -0.24842893 0.2081466 0.28078532 0.27961856 0.11506808
-0.035033226 -0.0988823 -0.055720314 0.112903774 0.036615998 0.079490155 0.19399491 0.083312124
-0.23589188 0.13320112 -0.23442651 -0.05218309 -0.0881829 -0.04270196 0.18147278 0.27333707
-0.11837934 -0.23310953 0.25349498 -0.20484 -0.0027822852 0.101928174 -0.21332586 0.22635573
0.17686912 -0.06840746 0.1556955 0.19241646 -0.12172425 -0.099433735 0.11614862 -0.10392626
00000000: bc31 123e 0077 0b3e 8807 9fbd 1248 853e
00000010: 288c 89bd 34be 6d3e cacc 0a3e a857 a23d
00000020: 3438 e43d 7a08 42be 8c9c 9b3d 6045 313d
00000030: 4e26 65be fa91 2cbe c459 853e 00a1 c03a
00000040: e00d 53bd f8e1 553e 8403 4dbd 5c83 10be
00000050: 8c4f 47bd f6d4 093e c47b b53d 385f d33d
00000060: 8ccb 2a3e 5897 4e3e 52ae 5ebe a00e 1c3d
00000070: 082a 8a3d da3e 3ebe 9827 3e3e ce05 8e3e
00000080: e005 2c3e fa6c 65be c0cd ae3b 8042 fe3b
00000090: 843c 4fbe b4c7 293e 0869 863d 64ae 91be
000000a0: d838 643e 9ee3 8a3e f455 c6bd d886 8a3d
000000b0: 70d4 3dbd 06df 343e 7042 a2bd 7884 0fbd
000000c0: a8c9 713e fc87 67be 0006 323d b208 79be
000000d0: e4ae 913e 70fd e6bd 9c70 823e beb3 3b3e
000000e0: e819 31be b4bf e43d 2222 2ebe 10dc 033e
000000f0: d86f 683e 055d 82be c2f5 343e 609f 0f3e
00000100: f40e e23d 08f1 4c3d b9f4 61be 549c 443e
00000110: f492 9bbd 7853 573e b466 d6bd 64dd f5bd
00000120: acd8 4b3e ebec 6dbe 6c9f a23d c6b7 ddbd
00000130: b485 26be fe8e 523e f04f dcbd da45 5cbe
00000140: f8e2 c43d 909c 40be a4a7 823e d6a7 a4bd
00000150: f709 92be 800d d93c e6af 383e 62b0 4c3e
00000160: a95a 2ebe 4089 7c3e b8fb f63d 80fc 473e
00000170: b74e 11be 3664 d4bd 9e6c edbd 0c0d 4e3e
00000180: 942d 363e e9c1 3fbe 98b6 803e 064a 76be
00000190: 807a 8f3e aa1d 85bd d8d4 763e d88d 43be
000001a0: 42cc 4e3e 18dd 06be caa7 2a3e 8470 1ebe
000001b0: af0c 16be 5e97 bebd 7550 0abe bc0b 6fbd
000001c0: 72c4 903e 1c75 cb3d 0706 4bbe ef9e 1abe
000001d0: 98c8 36be 827a 8d3e 941d 733e 08c3 7d3e
000001e0: 2edc 90bd d890 903e e0e9 873d f649 033e
000001f0: 1e5a 433e 96d1 813e 24ba 49be ba9d 8f3e
00000200: 46e5 0a3e 0c20 8b3d 0e36 8d3e 64da a03d
00000210: 202d 7dbd 8d2d 29be 009a c13a 9399 17be
00000220: 7ce8 f6bd 50f3 7d3d 1852 333e d0f6 74be
00000230: b6b1 8c3e d3b0 8dbe b8b6 5e3d 40cf 41bd
00000240: a8cc 39be 5c62 71be 7c29 a13d e00e 5f3e
00000250: 02eb 423e fc7d 2a3e aec6 7bbe feaf 0dbe
00000260: 2036 d53c 1230 873e 7ca9 f2bd 1098 1dbe
00000270: 827a cebd 88b8 a73d a0e1 06bc 523d 0c3e
00000280: 0093 a4bb dc7c 53be 7850 2a3d bed1 8f3e
00000290: 4846 37be caf9 8d3e 6efa 1ebe d8cb 3a3d
000002a0: 44b7 dbbd 7ed1 1e3e b143 86be f24c 403e
000002b0: fcf5 2f3e c409 653e 4649 99bd e8b1 e03d
000002c0: a84f 2d3e 7e02 1bbe 841c 58bd 932f 46be
000002d0: 80f7 34bc f9a5 80be 0eee efbd 90e3 423e
000002e0: 9e77 78be 9883 84be 645c 623e 0b5f 7abe
000002f0: d28f 37be 00cb aeba 4e2b 1fbe d0f2 2d3d
00000300: 765c d8bd 533f 2dbe 7e02 68be 5113 83be
00000310: 8c5d fb3d 888d 753d 241e debd 78e1 153d
00000320: c878 52be 3c32 7d3e c092 a33b c4d5 ed3d
00000330: a296 87be 8079 a8bc 8641 2dbe d0b0 45be
00000340: 8692 4f3e e8ec f7bd d809 a3bd 9ce8 c93d
00000350: 60d3 e33c 8703 56be e6c2 3ebe 868b 1dbe
00000360: 52ea 86bd f093 1bbd e0e0 34bc 2764 7ebe
00000370: 6224 553e 18c3 8f3e 2a2a 8f3e d0a8 eb3d
00000380: 007f 0fbd ce82 cabd fc3a 64bd 183a e73d
00000390: a8fa 153d bccb a23d 9aa6 463e 8c9f aa3d
000003a0: a48d 71be e065 083e 810d 70be f0bd 55bd
000003b0: 3c99 b4bd 40e8 2ebd 00d4 393e d6f2 8b3e
000003c0: de70 f2bd 44b4 6ebe 18ca 813e 94c1 51be
000003d0: 0057 36bb b8bf d03d 1872 5abe ccc9 673e
000003e0: 2e1d 353e 3619 8cbd a46e 1f3e d208 453e
000003f0: 904a f9bd eaa3 cbbd 54df ed3d 4ad7 d4bd

emotion_recognition_model/tmp_representation/bottleneck/MatMul f4 [40, 32]
0.28048354 0.030054867 0.07581866 -0.22735187 -0.12501177 0.0864059 -0.15015572 -0.20705336
-0.283796 0.21835798 -0.094301134 -0.102788225 0.19746658 0.06970909 0.24086922 0.10139924
0.08698672 0.069676876 -0.15093903 -0.19477876 0.20972511 0.27204514 0.22718692 -0.009170711
-0.21703644 0.24402225 -0.25968218 -0.18765146 -0.08379513 0.1563218 0.06936675 0.043052018
-0.2733742 -0.030938387 -0.11113036 -0.09561667 0.09658304 -0.25792712 -0.2707045 0.08904004
-0.07011895 0.12302479 -0.23292708 -0.009111673 -0.2312955 0.2853021 -0.1339083 -0.11710751
0.2711619 -0.14135584 0.24936628 -0.16888735 0.2864713 0.18008575 -0.21876314 -0.27527797
-0.25837547 0.08983058 0.006208807 -0.25308546 0.2107544 -0.08756298 0.0766052 0.13173369
-0.268191 -0.138628 -0.03573805 0.22906989 0.07246578 -0.08656508 -0.18482554 0.24908507
-0.17845988 -0.23632872 -0.17682129 0.27415907 -0.07898547 -0.0048423707 -0.28209445 0.15200609
-0.09700653 -0.033331633 0.16684303 0.28512657 -0.28090423 -0.04129675 -0.0017701089 0.0008868277
-0.04379408 -0.008801818 0.1973511 0.2664712 -0.0011376143 -0.0058163702 -0.24164748 0.23354721
0.16928208 0.21687824 -0.05286385 0.18619695 0.06740579 -0.09049241 -0.13956651 -0.25630593
-0.15493938 0.2291739 -0.015479535 0.16204101 0.28309774 0.12882671 0.042076617 -0.19911131
0.06464657 -0.19147988 0.0059179664 0.19260785 0.2724023 0.25078982 0.18348971 -0.241772
0.12048614 -0.1321032 -0.23074779 -0.18330458 0.17311117 0.16115335 0.10902527 -0.25647813
-0.0044177175 -0.06783746 -0.08419597 -0.06827347 -0.04339765 0.22614151 -0.013151586 0.20147404
0.21773964 -0.27982032 -0.03536716 0.14462644 -0.03165555 -0.10208069 0.148224 -0.22626987
0.1964148 -0.21882775 0.27529478 0.24572706 0.084589034 0.007931054 0.20976532 0.19957176
-0.23345587 -0.053613216 -0.05705346 0.14996949 -0.28530908 -0.26148754 -0.0059678555 -0.06327398
0.11566457 -0.025441408 -0.2347191 0.18400756 0.10584092 -0.14609413 -0.2859383 0.1739986
0.09351012 0.06925452 0.08623019 0.23529875 0.24503678 -0.0500758 -0.22391644 0.09790614
-0.20770225 -0.266714 0.019819885 -0.041734144 0.1340591 0.01619032 0.12022179 0.23597366
-0.1824742 0.12709114 0.28114033 -0.12855822 -0.18855046 -0.05118017 0.10464513 -0.13355282
0.11081278 0.14483428 -0.2857855 0.010931551 0.00022387505 0.021216005 -0.23222065 -0.13069236
0.036228567 -0.09696902 -0.053545013 -0.24594618 0.16350824 -0.27848965 0.017176092 0.17077392
0.075345576 0.20838955 -0.2418254 -0.045331508 0.13386205 0.010006756 -0.28128925 -0.07504596
0.1477997 0.13478562 0.16815978 0.28030497 -0.117917106 0.11479324 -0.16388546 0.24480587
0.18614864 0.18387341 0.059709907 -0.19552538 0.09967008 0.2385323 0.11024457 -0.16363879
0.17597309 0.20664522 -0.05386649 0.17727476 -0.027601153 0.031726778 -0.06535499 -0.089418456
-0.12793396 -0.13976018 0.13135913 -0.016833484 0.2513805 -0.05265537 -0.18297455 0.2600158
0.18417963 -0.1554621 -0.15946905 -0.24709192 -0.053655684 0.21794873 -0.15365854 0.2000916
00000000: 8a9b 8f3e a035 f63c d046 9b3d eece 68be
00000010: 1603 00be 94f5 b03d 6cc2 19be cc05 54be
00000020: b64d 91be 3c99 5f3e f420 c1bd a282 d2bd
00000030: ae34 4a3e a4c3 8e3d 6ca6 763e 68aa cf3d
00000040: 1826 b23d c0b2 8e3d c38f 1abe 1574 47be
00000050: 2ec2 563e 8049 8b3e b0a3 683e c040 16bc
00000060: cd3e 5ebe f8e0 793e 10f5 84be b427 40be
00000070: c89c abbd d212 203e 2810 8e3d 5057 303d
00000080: b4f7 8bbe 8072 fdbc 5098 e3bd acd2 c3bd
00000090: 54cd c53d 060f 84be c899 8abe a05a b63d
000000a0: 869a 8fbd 6cf4 fb3d 7084 6ebe 2049 15bc
000000b0: bad8 6cbe 1e13 923e 421f 09be 10d6 efbd
000000c0: bcd5 8a3e 96bf 10be e059 7f3e cef0 2cbe
000000d0: 5eac 923e 6668 383e 7203 60be 3cf1 8cbe
000000e0: ca49 84be 18f9 b73d 4073 cb3b 6b94 81be
000000f0: 00d0 573e 3854 b3bd 30e3 9c3d 32e5 063e
00000100: 5550 89be 80f4 0dbe 1062 12bd 4c91 6a3e
00000110: f068 943d 0849 b1bd e842 3dbe 2810 7f3e
00000120: 30be 36be 2800 72be a410 35be 945e 8c3e
00000130: 22c3 a1bd c0ac 9ebb af6e 90be 7ca7 1b3e
00000140: 5cab c6bd c086 08bd e6d8 2a3e 1cfc 913e
00000150: aed2 8fbe c826 29bd 0003 e8ba 007a 683a
00000160: 6c61 33bd 8035 10bc 6816 4a3e ea6e 883e
00000170: 001c 95ba 4097 bebb 7072 77be 0027 6f3e
00000180: 4858 2d3e 5415 5e3e c487 58bd 6aaa 3e3e
00000190: 0c0c 8a3d 1654 b9bd 86ea 0ebe 883a 83be
000001a0: 6ea8 1ebe 90ac 6a3e e09d 7dbc 14ee 253e
000001b0: 30f2 903e 26eb 033e 8858 2c3d d6e3 4bbe
000001c0: 6c65 843d 4d13 44be 80eb c13b fe3a 453e
000001d0: 5078 8b3e 8667 803e bae4 3b3e 1493 77be
000001e0: 70c1 f63d 1046 07be 2649 6cbe 32b4 3bbe
000001f0: 0e44 313e 6205 253e a448 df3d 1a51 83be
00000200: 80c2 90bb 5eee 8abd f06e acbd f6d2 8bbd
00000210: bcc1 31bd a491 673e c079 57bc 364f 4e3e
00000220: 24f7 5e3e 9c44 8fbe 28dd 10bd f418 143e
00000230: 40a9 01bd ae0f d1bd 08c8 173e 4ab3 67be
00000240: f620 493e 6214 60be 70f3 8c3e e09f 7b3e
00000250: 043d ad3d 40f1 013c b8cc 563e 8a5c 4c3e
00000260: 0e0f 6fbe 8899 5bbd e4b0 69bd 9a91 193e
00000270: 0814 92be b2e1 85be 008e c3bb ca95 81bd
00000280: 8ce1 ec3d 806a d0bc 345a 70be 7a6c 3c3e
00000290: 20c3 d83d b399 15be 8166 92be b02c 323e
000002a0: 3c82 bf3d 50d5 8d3d 7499 b03d 28f2 703e
000002b0: ecea 7a3e 481c 4dbd 5a4a 65be 0483 c83d
000002c0: e6af 54be bd8e 88be 505d a23c 6cf1 2abd
000002d0: ca46 093e 90a1 843c d836 f63d 14a3 713e
000002e0: 84da 3abe 2e24 023e a0f1 8f3e c4a4 03be
000002f0: 5f13 41be 4ca2 51bd 3050 d63d 12c2 08be
00000300: d0f1 e23d 704f 143e 7a52 92be 401a 333c
00000310: 00c0 6a39 30cd ad3c 40cb 6dbe 38d4 05be
00000320: 6864 143d b297 c6bd 0452 5bbd 51d9 7bbe
00000330: b46e 273e 3296 8ebe e0b4 8c3c 5cdf 2e3e
00000340: c84e 9a3d 1264 553e 14a1 77be 88ad 39bd
00000350: 2213 093e 60f3 233c 2505 90be b2b1 99bd
00000360: ce58 173e 3e05 0a3e 1432 2c3e 2284 8f3e
00000370: 867e f1bd b818 eb3d 97d1 27be 64ae 7a3e
00000380: c09d 3e3e 5049 3c3e 6092 743d ce37 48be
00000390: d41f cc3d d041 743e e8c7 e13d ed90 27be
000003a0: 4a32 343e ce9a 533e 1ca3 5cbd 8487 353e
000003b0: d01b e2bc f0f3 013d d6d8 85bd 0621 b7bd
000003c0: 1f01 03be 4b1d 0fbe 0283 063e 60e6 89bc
000003d0: f2b4 803e 28ad 57bd ae5d 3bbe ca20 853e
000003e0: 9699 3c3e 7531 1fbe db4b 23be aa05 7dbe
000003f0: 10c6 5bbd f42d 5f3e aa58 1dbe d0e4 4c3e

emotion_recognition_model/fusion_32/Tensordot/MatMul f4 [32, 40]
-0.05635017 -0.089508764 0.13836141 -0.0019450043 -0.2863438 -0.46990532 0.18877444 -0.22516128
-0.26252854 0.12690188 0.31119066 -0.28175268 -0.11076734 0.17161015 0.0130204875 -0.21860944
-0.35640803 0.0754716 0.6943966 0.03312051 0.08568826 0.03617526 0.40138778 0.2671888
-0.16762693 0.15734778 -0.011988842 -0.029281398 0.042744882 -0.26114386 0.37790295 -0.083332285
0.20793474 0.28279623 -0.19726017 -0.13292249 0.14759757 -0.22063129 -0.20667987 0.2745237
-0.061225396 -0.248991 -0.21648274 0.11072104 -0.09320773 -0.18668544 -0.24682187 -0.17401478
-0.21536525 -0.07831894 0.07462257 -0.08420321 -0.004298734 0.06815122 -0.34810874 -0.031213975
-0.2323022 0.29138207 0.078233995 -0.03701848 0.057587225 0.038519077 0.03510533 -0.07682518
-0.1706132 -0.23802546 -0.21057898 0.35186058 -0.1001812 0.34612194 0.17112872 0.013428241
0.093305424 -0.16943629 -0.3006734 0.016321873 -0.12998055 0.17141181 0.14088674 -0.04448084
0.14483717 0.27253586 -0.26374874 -0.3022787 0.1085649 -0.22748683 -0.29947832 0.14791687
0.23570408 -0.067888066 0.21347415 -0.05006684 -0.12250141 0.04275048 0.07005603 0.114377044
-0.057268452 -0.09858941 0.058146577 -0.077155635 -0.0008737027 -0.21864401 -0.0794344 0.14897546
0.24800545 -0.4160069 0.08871819 -0.19981593 -0.16279599 0.17460021 -0.1201489 0.069498256
0.04234379 -0.1485108 0.18139638 -0.11966546 0.031212041 -0.19889033 -0.13792062 -0.07964811
0.08320446 -0.105894804 -0.1715545 -0.37516725 -0.34268662 0.20053636 0.10772764 -0.22579734
0.09388365 -0.11415128 -0.19398142 -0.20700975 -0.022038234 -0.06983459 0.17500465 -0.13378537
-0.29332235 0.16737467 0.31003472 0.20508265 -0.09460983 0.30439335 -0.19435078 -0.24182953
0.25158083 -0.18948984 -0.052956387 0.17680667 -0.16329819 0.15174639 -0.09154974 -0.017143695
0.25455534 0.17691399 0.08633167 0.1717159 0.017775014 0.036668316 0.08662707 -0.106949456
0.05806002 -0.04311189 0.027350694 -0.26046932 -0.19190392 0.24791074 -0.030504078 -0.05849074
-0.019695371 0.18280861 0.2665499 0.16055864 0.04103735 -0.1422666 -0.2871464 -0.223367
-0.28757894 -0.09725602 0.24237752 -0.11894852 -0.18913457 0.02749297 0.27760512 0.10349211
0.08421296 0.081739455 0.029935807 0.25038177 -0.27397186 0.042710096 0.23446858 -0.23823704
0.05578673 0.14437011 0.12640879 -0.2244182 -0.27685016 -0.11672215 0.02606994 -0.24997908
0.09566175 -0.15841693 0.24281804 -0.18397176 0.2684565 0.093612105 0.27809063 -0.30712298
0.07916429 -0.05667921 -0.22571324 -0.047697473 0.077237986 0.0580541 0.15715706 0.24471709
0.07018392 0.02167662 -0.2833047 -0.20512724 0.21130799 -0.17044245 0.22247314 0.1484203
-0.28455845 -0.15765029 0.030834079 -0.09202328 -0.25632432 -0.17063451 -0.25340813 -0.17801908
-0.029782817 0.13010694 -0.04587368 0.031805526 -0.07695052 -0.036859356 0.004359457 -0.1034087
-0.25614032 -0.004112887 -0.22761756 -0.0033602896 -0.019730998 0.14748372 -0.01051185 0.020027403
0.3226923 -0.25461018 0.0070572877 0.084522024 0.14732791 0.027721431 -0.041933548 -0.038909983
00000000: 70cf 66bd 5f50 b7bd 9dae 0d3e 84ef feba
00000010: a89b 92be 6e97 f0be 164e 413e ae90 66be
00000020: 246a 86be 91f2 013e 6254 9f3e e341 90be
00000030: fdd9 e2bd 92ba 2f3e e253 553c 27db 5fbe
00000040: 1d7b b6be db90 9a3d fac3 313f 5fa9 073d
00000050: 547d af3d 822c 143d b382 cd3e f8cc 883e
00000060: 65a6 2bbe c71f 213e d96c 44bc 8bdf efbc
00000070: 4215 2f3d a6b4 85be 7f7c c13e 1eaa aabd
00000080: d8ec 543e abca 903e 92fe 49be d51c 08be
00000090: d123 173e 2bed 61be e3a3 53be 5f8e 8c3e
000000a0: 7bc7 7abd 7ff7 7ebe a7ad 5dbe b6c1 e23d
000000b0: b2e3 bebd 782a 3fbe dfbe 7cbe ee30 32be
000000c0: b588 5cbe ae65 a0bd b8d3 983d bc72 acbd
000000d0: 65dc 8cbb de92 8b3d 4f3b b2be 73b4 ffbc
000000e0: a1e0 6dbe 0830 953e 2539 a03d b1a0 17bd
000000f0: 95e0 6b3d 2ec6 1d3d 9bca 0f3d 8556 9dbd
00000100: 3ab5 2ebe f2bc 73be 04a2 57be 1227 b43e
00000110: cd2b cdbd e536 b13e 5e3c 2f3e 2002 5c3c
00000120: ea16 bf3d b580 2dbe ddf1 99be 73b5 853c
00000130: 9f19 05be 9486 2f3e 9d44 103e 8b31 36bd
00000140: 3250 143e d289 8b3e 130a 87be 46c4 9abe
00000150: 4657 de3d 4ff2 68be 3955 99be 8577 173e
00000160: 695c 713e e608 8bbd f898 5a3e e312 4dbd
00000170: 05e2 fabd 211b 2f3d 8979 8f3d 833e ea3d
00000180: 5392 6abd 3fe9 c9bd 1b2b 6e3d c603 9ebd
00000190: 3209 65ba 37e4 5fbe 81ae a2bd 068d 183e
000001a0: 24f5 7d3e dbfe d4be e2b1 b53d 8c9c 4cbe
000001b0: feb3 26be 66ca 323e a010 f6bd 1a55 8e3d
000001c0: af70 2d3d 3713 18be f9bf 393e 2a13 f5bd
000001d0: 65b0 ff3c e8a9 4bbe 103b 0dbe 8c1e a3bd
000001e0: 1a67 aa3d 60df d8bd fcab 2fbe ec15 c0be
000001f0: 9f74 afbe 6759 4d3e 4fa0 dc3d 6b37 67be
00000200: 1246 c03d 25c8 e9bd 11a3 46be 5dfa 53be
00000210: 8789 b4bc 7005 8fbd 6b34 333e 08ff 08be
00000220: 592e 96be 4464 2b3e dfbc 9e3e 3001 523e
00000230: ccc2 c1bd 72d9 9b3e e403 47be 29a2 77be
00000240: 34cf 803e a009 42be cce8 58bd cf0c 353e
00000250: a437 27be 6863 1b3e 6e7e bbbd ef70 8cbc
00000260: 1455 823e f128 353e a9ce b03d 4bd6 2f3e
00000270: e89c 913c 8431 163d 8969 b13d 5108 dbbd
00000280: 58d0 6d3d 1896 30bd 900e e03c 3c5c 85be
00000290: 7682 44be 50dc 7d3e b0e3 f9bc fc93 6fbd
000002a0: 3058 a1bc 2e32 3b3e 3a79 883e 7c69 243e
000002b0: c816 283d 56ae 11be da04 93be 52ba 64be
000002c0: 8c3d 93be 2a2e c7bd d031 783e 489b f3bd
000002d0: 7eac 41be f038 e13c 4222 8e3e acf3 d33d
000002e0: d877 ac3d 0467 a73d f03b f53c 0a32 803e
000002f0: 0a46 8cbe c8f0 2e3d 8818 703e 69f4 73be
00000300: a080 643d c2d5 133e 4e71 013e e2cd 65be
00000310: 4ebf 8dbe 060c efbd a090 d53c 84fa 7fbe
00000320: 4fea c33d 0c38 22be 4ba5 783e 1863 3cbe
00000330: 2173 893e b4b7 bf3d e561 8e3e 393f 9dbe
00000340: e320 a23d 7628 68bd 5f21 67be 6d5e 43bd
00000350: f32e 9e3d 23ca 6d3d c8ed 203e 1e97 7a3e
00000360: 96bc 8f3d 2b93 b13c 500d 91be e00c 52be
00000370: 1f61 583e 7788 2ebe 00d0 633e 7efb 173e
00000380: a5b1 91be 146f 21be c097 fc3c b476 bcbd
00000390: f13c 83be d0ba 2ebe b6be 81be a24a 36be
000003a0: 18fb f3bc c13a 053e 0ae6 3bbd 8346 023d
000003b0: 3c98 9dbd d6f9 16bd c7d9 8e3b f1c7 d3bd
000003c0: d324 83be 66c5 86bb 9414 69be 4e38 5cbb
000003d0: e7a2 a1bc f905 173e e539 2cbc 8210 a43c
000003e0: ed37 a53e 445c 82be d240 e73b e219 ad3d
000003f0: 21dd 163e 0e18 e33c 83c2 2bbd 1360 1fbd

emotion_recognition_model/fusion_16/Tensordot/MatMul f4 [16, 32]
0.38892433 0.011711166 -0.2672768 -0.013328192 0.25554356 -0.06902554 -0.20504366 0.13187683
0.19921614 -0.15430245 -0.037591394 -0.10540294 0.3445324 0.16755892 0.6964243 0.1335019
-0.08260391 -0.14918922 0.041416787 0.25179267 0.24145703 -0.35464174 0.3940229 -0.29126668
-0.30810153 0.33008355 0.27651212 0.12732208 -0.424862 -0.017636975 -0.19773719 -0.09596906
0.09895901 0.24658138 -0.29807875 -0.2405617 -0.093725234 -0.14717919 0.112043075 0.00271634
-0.14644037 0.09693558 -0.25689957 -0.11034572 0.29259703 0.1551115 -0.14100644 -0.26399943
0.17990766 0.05129534 -0.24131884 -0.09013343 -0.021564182 -0.25746197 -0.039569102 -0.0075134253
-0.1642295 -0.18033877 -0.05714955 -0.2854959 0.027552942 -0.31420916 0.007196322 -0.09341529
-0.7695627 0.17535862 -0.06371328 0.12472089 0.1260759 0.17504606 -0.1472347 0.19644964
-0.10723391 0.0019446632 0.15409677 -0.32300037 0.16280024 -0.113617375 0.19837761 0.08671155
0.45753402 0.24032299 0.24712497 0.17559257 -0.08398505 0.029309785 0.34623474 -0.24576302
-0.34943366 0.00441144 0.026003767 -0.29575735 -0.10300886 0.06599082 0.08787799 0.0069366465
0.04201534 -0.09572785 0.3147176 0.054102316 0.0033410788 0.42149132 0.009126284 -0.38976616
-0.14087328 0.037961353 0.08483816 0.24535787 -0.023488246 0.33812213 0.15032774 0.2319005
-0.27246335 -0.19249453 0.11866754 0.27373475 -0.39249122 0.095079035 -0.12873213 -0.22778061
0.22394416 0.30095476 0.2180407 -0.16474085 0.19433053 0.17237508 0.28074557 -0.4941008
0.36692286 0.20356698 0.05721717 0.33229682 -0.25740683 -0.14652905 -0.2450519 -0.3321261
0.20293239 0.13826546 0.12188906 0.16659209 0.2888619 -0.122780055 -0.12876168 0.004881807
-0.34767744 0.33395505 0.15111144 -0.11956497 0.30693254 0.32621336 0.1856603 -0.32543913
0.4596806 -0.24236792 0.4300701 -0.11402525 0.05091549 0.19406545 -0.10809637 0.23298943
-0.086153835 -0.16516638 -0.32935736 -0.14014925 -0.31643912 -0.19660808 -0.20558782 0.11938167
-0.22965482 0.3760577 0.339344 -0.29767478 -0.0765841 0.0045352234 -0.17501663 0.21137884
0.0765509 0.009543931 0.13933463 0.10559896 0.26036492 0.07754712 0.27148503 -0.27960536
0.092098504 -0.19944024 -0.017654452 0.100369714 -0.2757736 0.37883687 -0.29451048 0.31586462
-0.12975734 0.14858788 -0.03142547 0.111846015 0.19760552 -0.04627906 0.13955435 0.18107498
0.050991762 -0.32624367 -0.2564165 0.23078595 -0.14624715 -0.2072446 0.06334326 0.32798034
-0.31656238 0.23570895 0.17160934 0.10331432 -0.10472715 -0.33537042 0.019915938 -0.28675887
-0.12410111 -0.14144213 0.29781199 0.31489557 0.010075393 -0.12782827 -0.19967176 0.29794618
-0.29926583 -0.28849548 0.17918752 -0.31459734 0.02150914 0.14120005 0.19190088 0.32896787
-0.029322093 -0.39811453 -0.1169733 0.014109559 -0.41527528 -0.25819322 -0.0576246 0.22311589
0.39058414 0.24551412 0.28334633 -0.102522664 0.08785316 -0.059987277 -0.5193231 -0.077238955
-0.06968295 0.34903088 -0.6253535 -0.26276287 0.21219733 0.055371616 0.5612081 -0.060748544
00000000: 1721 c73e 31e0 3f3c 81d8 88be 7d5e 5abc
00000010: 9bd6 823e 435d 8dbd f7f6 51be b80a 073e
00000020: 51ff 4b3e 7601 1ebe 6ff9 19bd 7fdd d7bd
00000030: 8d66 b03e 9194 2b3e dd48 323f b9b4 083e
00000040: 3d2c a9bd 0fc5 18be a6a4 293d f8ea 803e
00000050: 8340 773e 9a93 b5be 5fbd c93e e820 95be
00000060: 7cbf 9dbe b600 a93e ff92 8d3e b860 023e
00000070: 8387 d9be 6b7b 90bc 9e7b 4abe 6d8b c4bd
00000080: 05ab ca3d d47f 7c3e c79d 98be ce55 76be
00000090: 04f3 bfbd 24b6 16be d776 e53d 9f04 323b
000000a0: 77f4 15be 2986 c63d 5788 83be f0fc e1bd
000000b0: 47cf 953e 8dd5 1e3e fe63 10be ef2a 87be
000000c0: b739 383e 101b 523d 491c 77be e097 b8bd
000000d0: 5ea7 b0bc 0ed2 83be 3613 22bd 2e33 f6bb
000000e0: c72b 28be baaa 38be a615 6abd 852c 92be
000000f0: b5b6 e13c 06e0 a0be 20cf eb3b 8450 bfbd
00000100: 1002 45bf 3691 333e 1c7c 82bd aa6d ff3d
00000110: 0a1a 013e 463f 333e b1c4 16be 182a 493e
00000120: 749d dbbd 12e4 fe3a 8bcb 1d3e 4e60 a5be
00000130: 1bb5 263e 3ab0 e8bd 8023 4b3e d395 b13d
00000140: e641 ea3e 3b17 763e 540e 7d3e 8ace 333e
00000150: 5b00 acbd 131b f03c ae45 b13e 4da9 7bbe
00000160: f8e8 b2be d78d 903b da05 d53c 826d 97be
00000170: 4ff6 d2bd 3226 873d 60f9 b33d cf4c e33b
00000180: 4718 2c3d f70c c4bd aa22 a13e 649a 5d3d
00000190: 00f6 5a3b b6cd d73e 6986 153c 6e8f c7be
000001a0: 1641 10be 5d7d 1b3d a1bf ad3d 183f 7b3e
000001b0: 6c6a c0bc 581e ad3e 84ef 193e 5377 6d3e
000001c0: 5180 8bbe 491d 45be f807 f33d f626 8c3e
000001d0: 9cf4 c8be ccb8 c23d 5bd2 03be 523f 69be
000001e0: 9e51 653e be16 9a3e 1046 5f3e d3b1 28be
000001f0: 95fe 463e 1883 303e e2bd 8f3e c8fa fcbe
00000200: 50dd bb3e dd73 503e 8d5c 6a3d cf22 aa3e
00000210: d4ca 83be b60b 16be e3ee 7abe 6f0c aabe
00000220: 82cd 4f3e 7695 0d3e f9a0 f93d 1e97 2a3e
00000230: b5e5 933e 1c74 fbbd 1ada 03be 91f7 9f3b
00000240: c702 b2be 28fc aa3e f5bc 1a3e 7bde f4bd
00000250: 4326 9d3e 7005 a73e bc1d 3e3e f59f a6be
00000260: 415b eb3e 4c2f 78be 2632 dc3e 1286 e9bd
00000270: c38c 503d 18b9 463e a161 ddbd c894 6e3e
00000280: 6c71 b0bd 6021 29be 87a1 a8be 4983 0fbe
00000290: 4f04 a2be a153 49be 9d85 52be 617e f43d
000002a0: a22a 6bbe a38a c03e 7fbe ad3e d468 98be
000002b0: 20d8 9cbd 369c 943b 8f37 33be b273 583e
000002c0: b8c6 9c3d 265e 1c3c bdad 0e3e 4444 d83d
000002d0: 8d4e 853e 06d1 9e3d 1600 8b3e 6f28 8fbe
000002e0: 249e bc3d 103a 4cbe 12a0 90bc a38e cd3d
000002f0: 3332 8dbe e8f6 c13e 14ca 96be 02b9 a13e
00000300: 1cdf 04be 6c27 183e feb7 00bd 860f e53d
00000310: 1a59 4a3e 1d8f 3dbd 56e7 0e3e b86b 393e
00000320: bddc 503d 6909 a7be 0649 83be 2753 6c3e
00000330: d0c1 15be ee37 54be 1cba 813d 0aed a73e
00000340: 7714 a2be b05d 713e 5cba 2f3e 7596 d33d
00000350: 307b d6bd acb5 abbe c026 a33c 0fd2 92be
00000360: b928 febd 35d6 10be d07a 983e fe39 a13e
00000370: 4313 253c 6ae5 02be c176 4cbe 678c 983e
00000380: 5f39 99be aeb5 93be ef7c 373e e712 a1be
00000390: f033 b03c bf96 103e aa81 443e 7a6e a83e
000003a0: e334 f0bc abd5 cbbe b38f efbd c82b 673c
000003b0: f69e d4be e731 84be c607 6cbd 7e78 643e
000003c0: a5fa c73e 0e68 7b3e c512 913e 67f7 d1bd
000003d0: 5cec b33d 38b5 75bd 5cf2 04bf 752f 9ebd
000003e0: efb5 8ebd 2db4 b23e 2b17 20bf db88 86be
000003f0: 424a 593e 59cd 623d 56ab 0f3f 77d3 78bd

emotion_recognition_model/dense_1_categorical/MatMul f4 [16, 64]
-0.031626876 0.10369775 -0.15941617 -0.058014322 0.21089539 0.15256363 0.26071307 0.071153745
-0.2073316 -0.2122288 -0.14098127 0.23510271 -0.16087383 -0.031492695 0.1409622 -0.36404797
0.095797434 -0.03883027 0.16716605 -0.1330643 0.041840374 -0.6369613 -0.13354054 0.45944008
0.01727722 0.20582889 -0.03099526 -0.24375728 0.042326733 0.41147822 0.013226049 0.12899855
-0.45960522 0.09642564 0.72450674 -0.5983076 -0.19961183 0.43309146 -0.11113814 0.4291096
-0.39177942 -0.6596327 0.2725589 -0.03413961 0.51809883 -0.44324276 0.5552389 -0.6170765
-0.17071554 0.01050675 -0.04830579 0.27830777 0.10871719 -0.16407643 0.24247958 0.0353758
-0.1604251 0.04855126 0.16363235 0.14493084 -0.13887678 0.1387583 0.23859388 -0.0041104686
-0.07577286 0.0165945 0.10402068 -0.14100577 0.18094647 -0.08635101 0.20173027 -0.80924845
0.07627657 -0.26393503 0.06810647 -0.18272427 -0.5690543 -0.055960864 0.3511809 0.19615184
0.07995836 -0.16129634 0.30641276 0.2237249 -0.21175045 -0.2256184 -0.019390583 0.17280076
0.18302946 0.22020096 0.2610833 0.17780563 0.36864406 -0.07800975 -0.27587557 -0.14427675
-0.17752585 0.18162537 -0.29330704 -0.30583954 -0.11610285 -0.26295906 0.22406456 0.4390052
-0.33136955 0.34486824 0.11112754 -0.07225658 0.13365056 0.23019627 -0.10456221 0.3914434
-0.08863335 0.15427673 -0.08732819 0.18834019 0.22039269 0.3108664 0.2426235 0.16735782
0.07606986 -0.19514069 0.032746244 0.14753848 -0.6702862 0.23929667 -0.14804837 -0.12805222
-0.2103738 -0.04864277 0.006134956 0.30927867 -0.0370672 0.29840788 0.23183371 0.10067138
-0.42085588 -0.015593022 -0.0021714568 -0.055890948 -0.19351801 -0.35592398 0.1130021 -0.24095826
-0.12337134 -0.071122766 0.47606513 -0.277534 -0.0070431223 0.29072624 0.2194094 0.18233596
0.20420474 0.024833461 -0.107465364 0.043246716 -0.0056488304 -0.22299428 0.25894567 0.033563502
0.06984452 0.12171966 -0.0697168 0.07082808 0.15096354 -0.5145663 0.16438338 -0.21198665
0.2064771 -0.28543243 0.22894731 -0.0774286 0.11147335 -0.020911189 -0.15588589 -0.1690953
0.20803599 0.07365892 -0.22187725 -0.41226467 -0.26657206 -0.7264599 -0.053603888 0.11023843
-0.17075537 0.023909595 -0.23622213 0.06114489 0.23137629 -0.07471985 -0.21376286 0.029036535
-0.04522204 0.05048099 0.16648138 -0.1633858 -0.12749663 -0.21975681 -0.21119596 0.13954878
0.14236368 -0.03022638 -0.0842078 -0.023747474 -0.02877619 -0.26548398 -0.07287409 -0.22456938
0.2550578 0.07854214 0.24257693 0.0031350227 -0.14271355 -0.07800165 0.14364165 0.06963414
0.06011888 0.20433234 0.09410894 -0.22920437 -0.23347165 0.040834177 -0.14378418 -0.070654154
0.21655609 0.030277168 0.004659882 -0.29549527 0.034863856 -0.24338645 -0.018064573 0.056006897
-0.20288718 -0.16796124 -0.13988233 0.1184849 -0.19030051 -0.24841245 0.16558672 0.13202639
-0.20305923 0.14698184 0.043432157 0.12527204 -0.106254436 -0.17145917 -0.2330262 -0.15288089
-0.012851818 -0.22672985 -0.04738939 0.23020272 -0.008114064 -0.22646698 0.11286409 0.016899265
00000000: 2f8b 01bd 7c5f d43d fe3d 23be 6da0 6dbd
00000010: f6f4 573e a439 1c3e 2f7c 853e 0eb9 913d
00000020: bc4e 54be 8252 59be 655d 10be c4be 703e
00000030: 1cbc 24be 7cfe 00bd 6558 103e 7f64 babe
00000040: 7231 c43d 7d0c 1fbd 942d 2b3e 0242 08be
00000050: d060 2b3d e50f 23bf dabe 08be bb3b eb3e
00000060: f588 8d3c cfc4 523e c6e9 fdbc 829b 79be
00000070: cc5e 2d3d 46ad d23e 12b2 583c 3218 043e
00000080: 6051 ebbe ce7a c53d 4679 393f b02a 19bf
00000090: 0b67 4cbe 2abe dd3e 659c e3bd 41b4 db3e
000000a0: 5097 c8be b0dd 28bf d78c 8b3e fad5 0bbd
000000b0: 20a2 043f b7f0 e2be 2324 0e3f baf8 1dbf
000000c0: 0ed0 2ebe 8124 2c3c 4bdc 45bd 5b7e 8e3e
000000d0: 1ea7 de3d a703 28be 914c 783e 37e6 103d
000000e0: 7a46 24be b0dd 463d 3d8f 273e c068 143e
000000f0: b735 0ebe a816 0e3e f451 743e 1cb1 86bb
00000100: cd2e 9bbd 30f1 873c cb08 d53d d163 10be
00000110: 084a 393e ccd8 b0bd 6192 4e3e e82a 4fbf
00000120: e436 9c3d 7e22 87be 687b 8b3d 121c 3bbe
00000130: 8bad 11bf 3837 65bd fccd b33e 07dc 483e
00000140: 35c1 a33d de2a 25be 22e2 9c3e 2418 653e
00000150: 1cd5 58be 8308 67be 00d9 9ebc aff2 303e
00000160: 136c 3b3e 5c7c 613e b6ac 853e ae12 363e
00000170: eabe bc3e 93c3 9fbd 903f 8dbe 49bd 13be
00000180: 56c9 35be 00fc 393e 572c 96be 0097 9cbe
00000190: 55c7 edbd 92a2 86be 2e71 653e 4ac5 e03e
000001a0: 45a9 a9be 9292 b03e d696 e33d 42fb 93bd
000001b0: b1db 083e 92b8 6b3e b624 d6bd 456b c83e
000001c0: 6785 b5bd b8fa 1d3e 1fd9 b2bd 40dc 403e
000001d0: 9fae 613e e129 9f3e 4b72 783e d95f 2b3e
000001e0: 84ca 9b3d f6d2 47be ed20 063d 5414 173e
000001f0: e097 2bbf 300a 753e fe99 17be 1f20 03be
00000200: 3b6c 57be a43d 47bd be07 c93b c659 9e3e
00000210: c7d3 17bd ebc8 983e d165 6d3e cc2c ce3d
00000220: 6c7a d7be e079 7fbc 004f 0ebb e8ed 64bd
00000230: 9629 46be ab3b b6be a56d e73d c3bd 76be
00000240: 1daa fcbd d0a8 91bd cfbe f33e f018 8ebe
00000250: fec9 e6bb 12da 943e dcac 603e 47b6 3a3e
00000260: 0c1b 513e 8b6f cb3c cd16 dcbd 7823 313d
00000270: d319 b9bb 9d58 64be 8794 843e e279 093d
00000280: a50a 8f3d 2848 f93d aec7 8ebd 500e 913d
00000290: 3096 1a3e 9eba 03bf 1e54 283e 0713 59be
000002a0: bc6e 533e 3324 92be 2a71 6a3e e392 9ebd
000002b0: 244c e43d f14d abbc 8da0 1fbe 5127 2dbe
000002c0: 6307 553e 7dda 963d ca33 63be 5b14 d3be
000002d0: 227c 88be 47f9 39bf c08f 5bbd b0c4 e13d
000002e0: 7fda 2ebe 0ede c33c 37e4 71be 1073 7a3d
000002f0: e8ed 6c3e b906 99bd a7e4 5abe 07de ed3c
00000300: bf3a 39bd 28c5 4e3d 187a 2a3e 9b4e 27be
00000310: 7a8e 02be ee07 61be c143 58be e0e5 0e3e
00000320: c9c7 113e 509d f7bc 2475 acbd 108a c2bc
00000330: 0bbc ebbc 84ed 87be 033f 95bd 84f5 65be
00000340: f096 823e b4da a03d 1666 783e f474 4d3b
00000350: 8023 12be 54bf 9fbd cc16 133e 589c 8e3d
00000360: 373f 763d 7f3c 513e 30bc c03d 8db4 6abe
00000370: 3113 6fbe bd41 273d 293c 13be 20b3 90bd
00000380: e1c0 5d3e d307 f83c ecb1 983b 284b 97be
00000390: 67cd 0e3d 4c3a 79be 28fc 93bc 7d67 653d
000003a0: a8c1 4fbe 08fe 2bbe 503d 0fbe 36a8 f23d
000003b0: 23de 42be d55f 7ebe 918f 293e ed31 073e
000003c0: c2ee 4fbe 6882 163e ebe5 313d 5047 003e
000003d0: ed9b d9bd fe92 2fbe 6c9e 6ebe cf8c 1cbe
000003e0: 6f90 52bc df2b 68be 611b 42bd 43ba 6b3e
000003f0: daf0 04bc f6e6 67be 4a25 e73d 5470 8a3c

emotion_recognition_model/dense_2_categorical/MatMul f4 [8, 16]
-0.23907368 -0.2614644 -0.02300902 -0.10615007 0.037643425 0.4353683 -0.058187388 -0.12180981
0.62745816 -0.2113243 -0.37772146 -0.3902565 0.52196234 -0.59468234 -0.32822946 0.4658498
0.36839303 0.82517684 -0.39691174 0.08149188 0.6933227 0.13378987 0.3720278 0.6304161
-0.13483599 -0.35309908 -0.10628345 0.14994931 0.4838499 0.21824975 0.063589275 -0.1425608
-0.3645994 -0.36412883 -0.39577663 0.21757661 -0.51632553 0.40667006 -0.5630023 -0.35264492
-0.20192115 -0.35910505 0.03304522 -0.5011157 -0.11549557 -0.30626807 -0.42854276 0.432703
0.5099622 -1.2786038 0.44761533 0.08456492 -0.5191166 0.4546596 -0.06422115 -0.60440445
-0.24812217 0.11139947 -0.54816383 -0.57475436 -0.42383236 -0.32680142 0.21875483 0.4701114
0.48927024 0.16660354 -0.013904189 -0.06777642 -0.3118396 0.16789621 0.42120627 0.39586803
-0.24599536 0.39110747 0.22133397 1.0759115 -0.23011741 0.29784244 0.032906733 -0.079215884
-0.11678679 0.47313777 -0.021488583 -0.056893054 0.6691629 -0.27335334 0.09754678 0.35150293
-0.36904886 0.09450034 -0.5659791 -0.58619165 -0.16897757 -0.55490047 0.32039914 0.0019931258
-0.31505087 0.86657447 0.5685554 0.43891943 -0.20750007 0.44012797 0.38714358 -0.5147036
0.035720173 -0.056763783 0.51456136 0.87105256 -0.08740378 0.46352103 0.4014096 -0.18709715
-0.25629175 0.35587892 -0.17525114 -0.4880837 0.38321015 -0.29354528 0.2572648 0.53773767
-0.016801175 -0.87577766 0.5578107 0.058332097 -0.4285392 1.174197 0.22444971 0.48669997
00000000: bbcf 74be a9de 85be 6a7d bcbc 3565 d9bd
00000010: fe2f 1a3d 98e8 de3e e655 6ebd 6c77 f9bd
00000020: 19a1 203f 6665 58be b564 c1be b3cf c7be
00000030: 539f 053f 1a3d 18bf b10d a8be dd83 ee3e
00000040: 039e bc3e ca3e 533f 0438 cbbe 37e5 a63d
00000050: 997d 313f 3600 093e 6e7a be3e f362 213f
00000060: 7212 0abe 67c9 b4be 23ab d9bd 508c 193e
00000070: 2dbb f73e dd7c 5f3e 183b 823d 75fb 11be
00000080: c6ac babe 186f babe 3ca3 cabe 67cc 5e3e
00000090: e92d 04bf 0f37 d03e eb20 10bf e08d b4be
000000a0: 6bc4 4ebe 9edc b7be 6d5a 073d 1e49 00bf
000000b0: f188 ecbd 2bcf 9cbe f569 dbbe 3f8b dd3e
000000c0: e28c 023f 4aa9 a3bf d62d e53e 5f30 ad3d
000000d0: d3e4 04bf 25c9 e83e 6186 83bd 40ba 1abf
000000e0: bd13 7ebe 6825 e43d 7754 0cbf 1a23 13bf
000000f0: 8e00 d9be 8452 a7be 4401 603e 71b2 f03e
00000100: a181 fa3e 1e9a 2a3e 65ce 63bc 5dce 8abd
00000110: 71a9 9fbe fcec 2b3e 59a8 d73e 37af ca3e
00000120: 35e6 7bbe 3d3f c83e 5fa5 623e 78b7 893f
00000130: e6a3 6bbe ce7e 983e 36c9 063d f03b a2bd
00000140: ea2d efbd 1d3f f23e d308 b0bc b108 69bd
00000150: 434e 2b3f f8f4 8bbe 9bc6 c73d 31f8 b33e
00000160: f9f3 bcbe 6589 c13d 02e4 10bf a810 16bf
00000170: 7508 2dbe f50d 0ebf 5b0b a43e 1a9f 023b
00000180: 594e a1be d3d7 5d3f d98c 113f 0cba e03e
00000190: e67a 54be 7458 e13e af37 c63e 9dc3 03bf
000001a0: 514f 123d 2481 68bd 4bba 033f 4dfd 5e3f
000001b0: c100 b3bd a152 ed3e 8f85 cd3e 6596 3fbe
000001c0: ac38 83be c335 b63e 0975 33be 1be6 f9be
000001d0: 1f34 c43e 914b 96be 36b8 833e 2da9 093f
000001e0: 9ea2 89bc f732 60bf afcc 0e3f a3ed 6e3d
000001f0: 7d69 dbbe 164c 963f 25d6 653e bd30 f93e

emotion_recognition_model/arousal-3/MatMul f4 [3, 8]
0.40443295 0.65809506 0.007050574 -0.559543 -0.2256056 -0.5294204 0.42682785 -0.1670264
0.11538577 -0.6803117 0.25399208 0.17830032 0.66054016 0.42815477 0.5932794 0.6611008
0.22284883 -0.4794059 0.5277025 0.14454138 0.54614407 0.041540086 0.6374927 -0.24777243
00000000: d611 cf3e eb78 283f 8008 e73b 363e 0fbf
00000010: 2805 67be 1888 07bf 2e89 da3e f808 2bbe
00000020: 604f ec3d e828 2ebf 400b 823e 5c94 363e
00000030: 2919 293f 1a37 db3e 29e1 173f e73d 293f
00000040: 7c32 643e b174 f5be 8317 073f a802 143e
00000050: 19d0 0b3f f025 2a3d b932 233f 0eb8 7dbe

emotion_recognition_model/acc_representation/block_1_conv1/Conv1D f4 [2, 1, 1, 1]
0.07490611 0.5803968
00000000: 6068 993d e294 143f

emotion_recognition_model/acc_representation/block_1_conv3/Conv1D f4 [2, 1, 3, 1]
-0.19534034 0.016603231 -0.006342113 0.7418237 0.7096399 0.5678474
00000000: 4c07 48be 8003 883c 80d1 cfbb 28e8 3d3f
00000010: f6aa 353f 725e 113f

emotion_recognition_model/acc_representation/block_1_conv5/Conv1D f4 [2, 1, 5, 1]
0.010258913 -0.38793963 0.6201833 0.0890764 -0.41819847 0.15846717 -0.062850416 -0.2668481
0.037450135 -0.4187793
00000000: 0015 283c 06a0 c6be 55c4 1e3f b06d b63d
00000010: 1c1e d6be 3845 223e b8b7 80bd 50a0 88be
00000020: 5065 193d 3e6a d6be

emotion_recognition_model/acc_representation/block_1_conv7/Conv1D f4 [2, 1, 7, 1]
0.07762313 -0.14024323 0.1689946 0.41351604 0.40412068 -0.3009323 0.39680666 0.1451754
0.0053344965 -0.19821471 0.3494091 0.113259315 -0.18232319 0.31613058
00000000: e0f8 9e3d ec9b 0fbe ec0c 2d3e 60b8 d33e
00000010: e8e8 ce3e cc13 9abe 3e2a cb3e dca8 143e
00000020: 00cd ae3b ccf8 4abe c0e5 b23e 80f4 e73d
00000030: eeb2 3abe dedb a13e

emotion_recognition_model/acc_representation/block_2_conv1/Conv1D f4 [2, 1, 1, 8]
0.45613885 -0.320696 0.6530936 -0.04848951 -0.013870239 -0.020305574 0.1214869 -0.39963096
0.75550187 0.114406705 0.6224791 -0.42637163 0.3102653 0.68155026 -0.55733013 -0.5130144
00000000: 088b e93e 4432 a4be 2431 273f f09c 46bd
00000010: 0040 63bc e057 a6bc 20ce f83d 6e9c ccbe
00000020: 9268 413f 104e ea3d ca5a 1f3f 624d dabe
00000030: 18db 9e3e 147a 2e3f 30ad 0ebf e954 03bf
