app/src/main/ml/model.tflite (tflite, 162896 bytes, 78 tensors)

fusion_32/bias f4 [32]
0	0xbced299c	-0.028950505
1	0xbd8f9677	-0.07011121
2	0xbe0bb9ad	-0.13645048
3	0xbc24cb10	-0.0100581795
4	0xbd4801fb	-0.048830014
5	0xbbc86678	-0.006115731
6	0x3c181e8e	0.009284629
7	0xbccc91b6	-0.024971824
8	0x3c848f9e	0.016181763
9	0xbb0bf86b	-0.0021357785
10	0x3e066169	0.13123097
11	0xbbf068ef	-0.007336728
12	0xbbd75e20	-0.0065725
13	0x3d1568b0	0.03647679
14	0xbcbca014	-0.02302555
15	0x3dafcab1	0.08583582
16	0xbd572823	-0.05252851
17	0x3d07f862	0.03319586
18	0x3df312c6	0.11868815
19	0xbd4c9145	-0.049943227
20	0x3ca5421f	0.02017313
21	0xbc0e86fd	-0.008699176
22	0x3d3fa59f	0.046788808
23	0x3d72b6a2	0.059256203
24	0x3de8d36b	0.1136845
25	0xbd0d21ea	-0.03445617
26	0xbde2b188	-0.11069018
27	0xbdaeeb18	-0.08540934
28	0xbd80a650	-0.062817216
29	0xbb4a4bdb	-0.0030867967
30	0xbdc3b6b7	-0.095563345
31	0xbc733266	-0.014843559

fusion_16/bias f4 [16]
0	0xbd1ecc7a	-0.038769223
1	0x3dc7c511	0.09754384
2	0xbd2760b6	-0.040863715
3	0x3d79afda	0.06095872
4	0x3bcb21f5	0.0061991164
5	0x3d18cc9a	0.0373045
6	0x3da20064	0.07910231
7	0x3cff1daf	0.031142084
8	0xbd347996	-0.044061266
9	0x3d228a52	0.039682694
10	0xbd061f2b	-0.032744568
11	0xbd652295	-0.055941183
12	0xbd72f924	-0.05931963
13	0x3d2a72e5	0.04161348
14	0xbce67a20	-0.028134406
15	0x3dbf2af3	0.09334364

dense_2_categorical/bias f4 [8]
0	0xbd8cde0c	-0.068782896
1	0x3d66281f	0.056190606
2	0xbd0374cc	-0.032093808
3	0xbb320429	-0.0027163124
4	0x3e27d38e	0.16389295
5	0xbc4c4a56	-0.012468895
6	0x3e3d050b	0.18458955
7	0x3d41fab4	0.04735823

dense_1_categorical/bias f4 [16]
0	0xbccec2c5	-0.025239358
1	0xbd1cc9e8	-0.03827849
2	0x3caa3ba4	0.020780392
3	0x3dc54ed7	0.09634178
4	0x3ddfb09b	0.10922357
5	0xbd2a92a3	-0.04164375
6	0xbd229352	-0.039691277
7	0xbc9b2b89	-0.018941658
8	0x3de9f15e	0.1142299
9	0x3ca856b5	0.020549158
10	0x3c7270e6	0.014797425
11	0x3d6f61f3	0.05844302
12	0x3d386673	0.04501958
13	0x3a74c4f2	0.00093372085
14	0xbcc18119	-0.023621129
15	0x00000000	0.0

emotion_recognition_model/tmp_representation/block_4_conv7/Conv1D f4 [2]
0	0x00000000	0.0
1	0x00000000	0.0

emotion_recognition_model/acc_representation/bottleneck/MatMul f4 [40, 32]
0	0xbe307050	-0.17230344
1	0x3daf8f38	0.08572239
2	0x3e8a1820	0.2697153
3	0xbe4333d0	-0.19062734
4	0xbe4f8eb3	-0.20269279
5	0x3e4f1b12	0.2022517
6	0xbd4c1954	-0.049828842
7	0xbe8ce0a3	-0.27515134
8	0xbe130e52	-0.14360932
9	0xbded3308	-0.11581999
10	0x3e18e1d6	0.149299
11	0xbe081977	-0.13290964
12	0xbdaffaf8	-0.0859279
13	0xbc2c8de0	-0.0105318725
14	0xbc6d37c0	-0.014478624
15	0x3e645560	0.22298193
16	0x3e2fc74a	0.17165866
17	0x3e2ed710	0.17074227
18	0xbe6fc88c	-0.23416346
19	0xbe2a7c86	-0.16649064
20	0xbd0d8e78	-0.034559697
21	0xbdfb58d2	-0.122728005
22	0x3e7f758c	0.24947184
23	0x3d518060	0.05114782
24	0xbe485941	-0.19565298
25	0x3e8cf53a	0.27530843
26	0xb9d15400	-0.0003992617
27	0xbdfbc5fa	-0.122936204
28	0x3e05a538	0.13051307
29	0xbb4b5380	-0.0031025112
30	0xbb71e100	-0.0036907792
31	0xbe7d711b	-0.24750178
32	0x3e8726c0	0.2639675
33	0xbe84eace	-0.25960392
34	0xbe0c26db	-0.13686697
35	0x3d03d460	0.03218496
36	0xbe8180d3	-0.25293598
37	0xbd78cc90	-0.06074196
38	0xbe564b48	-0.20927155
39	0x3e0863fa	0.13319388
40	0x3de99328	0.11405021
41	0x3e331dd8	0.17491853
42	0x3e0516bc	0.12996954
43	0xbda5c126	-0.08093481
44	0xbd5b6524	-0.053563252
45	0x3e33ba38	0.17551506
46	0x3e24c60a	0.16091171
47	0xbe152eb6	-0.145686
48	0xbdf00b92	-0.11720957
49	0xbddd6f7e	-0.10812281
50	0x3ceb9830	0.028759092
51	0x3e2acbd2	0.16679314
52	0xbdf0d422	-0.11759211
53	0x3e0539b4	0.13010293
54	0xbe1218ad	-0.14267226
55	0x3e8b2562	0.27176958
56	0x3d197f08	0.037474662
57	0xbe8ebe90	-0.27879763
58	0xbde5c8aa	-0.11219914
59	0xbdf8cd9a	-0.121485904
60	0x3e8e76c6	0.27824992
61	0xbd3781c4	-0.04480149
62	0x3e385714	0.18001968
63	0x3d84da7c	0.06486985
64	0xbce7f660	-0.028315723
65	0x3db85148	0.08999878
66	0xbe1f5448	-0.15559494
67	0xbd3d3144	-0.04618956
68	0xbd8916a2	-0.0669377
69	0x3de7af58	0.11312741
70	0xbd37ed00	-0.044903755
71	0xbd65ebd8	-0.05613312
72	0x3e034384	0.12818724
73	0x3dac4764	0.08412054
74	0xbdbb9e74	-0.09161082
75	0xbc659aa0	-0.014013916
76	0x3cbde100	0.023178577
77	0x3cf3f4d0	0.029779822
78	0xbcfdbb40	-0.030973077
79	0x3e20e4a2	0.15712216
80	0x3daf4098	0.08557242
81	0xbe85ed02	-0.26157385
82	0xbe4ec56c	-0.20192498
83	0xbc84a690	-0.016192704
84	0xbd9e9e32	-0.07745017
85	0x3e615e38	0.22008598
86	0xbdbbc8ac	-0.091691345
87	0x3e03237a	0.12806502
88	0xbe4ad16f	-0.19806455
89	0xbe6def36	-0.23235783
90	0x3d8515a8	0.06498271
91	0xbd931cc6	-0.071832225
92	0xbda25f0e	-0.079282865
93	0xbd826828	-0.063675225
94	0xbe3f0f34	-0.18658143
95	0xbe3b8552	-0.18312576
96	0x3e204262	0.15650323
97	0x3dd89a20	0.10576272
98	0xbe78fc48	-0.24314988
99	0xbd932148	-0.07184082
100	0x3b586980	0.0033021867
101	0xbe0077ad	-0.12545653
102	0x3e46e182	0.19421962
103	0xbe7c1ad4	-0.24619609
104	0x3d5cb708	0.05388549
105	0x3d3f8608	0.04675868
106	0xbe88fe87	-0.2675669
107	0x3d1d35b8	0.03838131
108	0x3dbe7130	0.092989326
109	0xbdf21314	-0.11820045
110	0x3e063e04	0.13109595
111	0xbe198a4b	-0.14994161
112	0xbe51239a	-0.20423737
113	0x3d9c6dfc	0.07638165
114	0x3dd4a8e0	0.10383773
115	0x3e33d62e	0.17562172
116	0x3dc24e30	0.09487569
117	0xbd6ca4a4	-0.0577742
118	0x3dd517f4	0.10404959
119	0xbcf2dc90	-0.029646188
120	0xbd949292	-0.072545186
121	0x3e51aad8	0.20475328
122	0xbd9fc9e2	-0.07802178
123	0xbe31e95c	-0.17374176
124	0xbda28c16	-0.079368755
125	0xbcd5cbd0	-0.026098162
126	0x3e731c28	0.2374121
127	0xbe8dea66	-0.27717894
128	0x3e3f750c	0.18696994
129	0xbe14b43d	-0.1452188
130	0x3daf64b4	0.085641295
131	0xbdb83758	-0.08994931
132	0x3e165f8c	0.14684886
133	0xbe3f5fac	-0.1868884
134	0xbddce8b8	-0.10786575
135	0xbdd5ac8c	-0.10433301
136	0xbd536490	-0.051609576
137	0xbe84a0d7	-0.2590396
138	0xbe1b3682	-0.15157512
139	0xbdf0b62e	-0.11753498
140	0x3e6843fc	0.22682184
141	0xbe22b68f	-0.15889953
142	0xbe8943cf	-0.26809546
143	0x3d936b54	0.071982056
144	0xbc33a8e0	-0.010965556
145	0x3d07ee80	0.033186436
146	0xbcaf0440	-0.021364331
147	0xbe84aa45	-0.25911155
148	0xbe00eeef	-0.12591146
149	0x3e07c44e	0.13258478
150	0x3e8336bc	0.25627697
151	0xbe0238d1	-0.12716986
152	0x3e2b4b24	0.16727883
153	0xbe2f1525	-0.1709791
154	0xbe81db06	-0.25362414
155	0xbd600a8c	-0.05469756
156	0xbd80840e	-0.062751874
157	0xbd8c47d6	-0.06849639
158	0xbe922e0f	-0.28550765
159	0x3e2dfd94	0.16991264
160	0x3e15ad9e	0.14617011
161	0xbd6b02b8	-0.05737564
162	0x3e90da7c	0.2829169
163	0xbe119730	-0.1421783
164	0xbe39281d	-0.18081708
165	0x3d9ceae8	0.07661992
166	0x3dfb5694	0.12272373
167	0xbe5ac184	-0.21362883
168	0x3e19659e	0.1498017
169	0x3e874dd4	0.26426566
170	0xbe0d1d75	-0.13780768
171	0xbd04c100	-0.03241062
172	0xbcda2c90	-0.026632577
173	0xbe5f0f2c	-0.21783131
174	0xbe6b78ac	-0.22995251
175	0x3e173894	0.14767677
176	0xbd804f56	-0.06265132
177	0xbda443e2	-0.0802076
178	0x3e904146	0.281748
179	0xbe8e8a6a	-0.27839977
180	0xbe889cd7	-0.2668216
181	0x3e588610	0.21144891
182	0x3e74fac4	0.23923784
183	0xbe1e700c	-0.1547243
184	0x3e4b3f42	0.1984835
185	0xbe5e8f7c	-0.21734422
186	0xbd630a48	-0.055429727
187	0xbe6400de	-0.22265956
188	0x3df3cdb0	0.11904466
189	0x3e00dc9a	0.12584153
190	0x3dfb5da8	0.12273723
191	0xbe5ea016	-0.21740755
192	0xbe817b39	-0.25289324
193	0xbe3df51c	-0.18550533
194	0x3cb98b10	0.022649318
195	0xbcc5c770	-0.02414295
196	0x3db37934	0.08763352
197	0x3e53a836	0.20669636
198	0xbc894f90	-0.016761571
199	0x3e75b7dc	0.23995918
200	0xbe0c9881	-0.1373005
201	0xbe3a9b83	-0.18223386
202	0xbe251d90	-0.16124558
203	0xbdbe7ed4	-0.09301534
204	0xbcf57a90	-0.029965669
205	0xbe031cbf	-0.12803935
206	0x3e20c12a	0.15698686
207	0xbe05a4db	-0.13051169
208	0xbd91d664	-0.0712097
209	0xbe2666ec	-0.16250199
210	0xbe8900e7	-0.267585
211	0xbe710c8c	-0.23539943
212	0xbc609ce0	-0.013709277
213	0x3d971d94	0.073786885
214	0x3e373848	0.17892563
215	0x3d1fc548	0.0390065
216	0xbe504db6	-0.20342144
217	0x3e8861a0	0.26636982
218	0xbdeeac66	-0.11653976
219	0xbd9682a0	-0.073491335
220	0x3d505328	0.050860554
221	0x3e8f6ef0	0.28014326
222	0xbe30f961	-0.1728263
223	0xbccc6970	-0.02495262
224	0xbdc1af62	-0.0945728
225	0xbe7da639	-0.2477044
226	0x3d5df500	0.05418873
227	0x3e3a8efa	0.18218604
228	0xbdf1827e	-0.117924675
229	0xbe919aec	-0.2843851
230	0xbe805778	-0.25066733
231	0x3ded0274	0.115727335
232	0xbdbaad98	-0.09115142
233	0x3cb64bf0	0.022253007
234	0xbe112455	-0.14174016
235	0xbd9ee004	-0.07757571
236	0xbe386f2e	-0.18011162
237	0x3dce58d0	0.100755334
238	0x3e60f1a4	0.21967179
239	0x3e3a3a32	0.18186262
240	0xbd475e20	-0.04867375
241	0x3e012870	0.12613082
242	0xbcc6f6b0	-0.024287552
243	0x3d226748	0.039649278
244	0xbe3d36c4	-0.18477923
245	0xbe392e92	-0.18084171
246	0x3e8d02ca	0.2754119
247	0xbe676a90	-0.22599244
248	0x3d06c7d0	0.0329054
249	0xbe8fb4ec	-0.2806772
250	0x3d978aa0	0.073994875
251	0x3d85547c	0.06510255
252	0x3dfd0328	0.12354118
253	0xbe83e5d1	-0.25761274
254	0x3dfe2bb4	0.124106795
255	0x3e727110	0.23675942

emotion_recognition_model/bvp_representation/bottleneck/MatMul f4 [40, 32]
0	0xbe7acad4	-0.24491435
1	0x3e544610	0.20729852
2	0xbe888484	-0.266636
3	0xbe658c4c	-0.224168
4	0x3e53d54e	0.20686838
5	0x3e5c9714	0.21542007
6	0xbd3d3040	-0.046188593
7	0xbd085190	-0.03328091
8	0x3e931ff4	0.28735316
9	0x3e2a95fa	0.16658774
10	0xbe3d0498	-0.18458784
11	0x3d354588	0.044255763
12	0xbdcf4adc	-0.101217
13	0x3d9f6804	0.07783511
14	0x3d8c2828	0.06843597
15	0x3e0f3a5c	0.13987106
16	0x3e500970	0.203161
17	0xbbd83a80	-0.0065987706
18	0xbe24a8fe	-0.1608009
19	0x3e15821e	0.14600417
20	0x3d9336b8	0.07188171
21	0x3dc5e93c	0.096636266
22	0xbdc5c3a0	-0.09656453
23	0xbcc1bcd0	-0.023649603
24	0xbdea7318	-0.11447734
25	0xbdb12bd8	-0.08650941
26	0x3c81ed70	0.01586029
27	0x3e4ab9cc	0.19797438
28	0x3d6e7960	0.05822122
29	0xbe3689d4	-0.17826015
30	0xbdfa0078	-0.12207121
31	0x3da5e264	0.08099821
32	0x3e32bb14	0.17454177
33	0xbe689212	-0.22711971
34	0xbe048f70	-0.12945342
35	0x3e8926c0	0.26787376
36	0xbd00a500	-0.031407356
37	0xbe00bfb8	-0.12573135
38	0x3e752ab8	0.23942077
39	0xbddf359e	-0.108988985
40	0x3e14f454	0.14546329
41	0xbe70612a	-0.23474565
42	0x3e2108e6	0.1572605
43	0x3e921526	0.2853176
44	0xbd23d6c4	-0.03999974
45	0x3cfa2540	0.03053534
46	0x3e007cfa	0.12547675
47	0xbe141274	-0.14460164
48	0x3e31be90	0.1735785
49	0x3e83f5e8	0.2577355
50	0x3dbf641c	0.09345266
51	0x3e47dd28	0.19517958
52	0xbe874828	-0.26422238
53	0x3d96e150	0.07367194
54	0xbe163903	-0.14670186
55	0xbd963440	-0.07334185
56	0x3c3c8da0	0.011508375
57	0x3df978d4	0.12181249
58	0x3d39ef10	0.045394003
59	0xbcef86a0	-0.029238999
60	0xbde3faf8	-0.11131853
61	0xbe3b888d	-0.18313809
62	0x3e5c9e88	0.2154485
63	0x3e765b90	0.24058366
64	0xbdcff95e	-0.10154985
65	0xbe4a868f	-0.19777893
66	0x3e26244c	0.16224784
67	0xbe6ed3fc	-0.23323053
68	0xbe8be01a	-0.27319413
69	0xbcc3d1c0	-0.023903728
70	0x3cd0c550	0.025484711
71	0xbd36e258	-0.044649452
72	0x3e899fb2	0.2687965
73	0xbe0ed214	-0.13947326
74	0x3e43dabe	0.19126412
75	0x3d794c50	0.060863793
76	0x3e5ea134	0.21741182
77	0xbe2ef01f	-0.17083786
78	0x3dc3d600	0.09562302
79	0x3e60c0c8	0.2194854
80	0x3e82056e	0.25394768
81	0xbc337900	-0.010954142
82	0xbd83c988	-0.064349234
83	0xbe39588e	-0.18100187
84	0xbe4f3f6c	-0.20239037
85	0x3d9509b0	0.07277238
86	0xbe6aaa60	-0.22916555
87	0x3dbb4790	0.09144509
88	0x3e8431ea	0.2581933
89	0x3e8b9e8a	0.27269393
90	0xbcfc5870	-0.030803889
91	0x3df37e04	0.1188927
92	0x3e4016c4	0.18758684
93	0x3e811476	0.25210923
94	0xbd8d6466	-0.06903915
95	0xbcc568a0	-0.02409774
96	0x3e4917fe	0.19638059
97	0xbcdae070	-0.026718348
98	0xbe38b468	-0.1803757
99	0xbe853f2c	-0.2602476
100	0x3e707228	0.23481047
101	0x3da45744	0.08024457
102	0xbe70c9aa	-0.23514429
103	0x3e29ac9a	0.16569749
104	0x3daea6b8	0.08527893
105	0xbe4e99c6	-0.20175847
106	0x3d760cb0	0.060070693
107	0x3e3cc4e6	0.18434486
108	0xbe8745bd	-0.26420394
109	0xbc167bc0	-0.009184778
110	0xbe914908	-0.2837603
111	0xbe80497f	-0.25056073
112	0xbdd0007a	-0.10156341
113	0x3e22041e	0.15821883
114	0x3cc9d5d0	0.024638087
115	0x3e387826	0.18014583
116	0xbe27e76c	-0.16396874
117	0xbe6b9938	-0.23007667
118	0x3e109c8c	0.14122218
119	0x3c2bac40	0.010478079
120	0xbda7c4e8	-0.08191854
121	0x3df69bf4	0.120414644
122	0x3e8c1760	0.27361584
123	0x3e705d74	0.2347315
124	0xbc3d7d80	-0.011565566
125	0xbe376292	-0.17908695
126	0x3dff6890	0.124711156
127	0x3cbe5d90	0.023237973
128	0xbc8ebef0	-0.01742503
129	0xbe92aedc	-0.28649032
130	0xbc7910e0	-0.015201777
131	0x3dae39c0	0.08507109
132	0x3e13ac48	0.14421189
133	0x3d78ec50	0.06077224
134	0x3e584e8c	0.21123713
135	0xbd5bfb1c	-0.053706273
136	0xbccc4d20	-0.02493912
137	0x3e511fec	0.20422333
138	0x3c992500	0.0186944
139	0xbdac38b4	-0.08409253
140	0x3e56c932	0.20975187
141	0x3e360616	0.17775759
142	0x3e862a3c	0.26204097
143	0x3e5964e4	0.21229893
144	0xbd830b0c	-0.063985914
145	0xbd257f30	-0.0404045
146	0xbd42487c	-0.047432408
147	0xbdf5cdc4	-0.12002137
148	0x3d9a8398	0.07544631
149	0xbe7a44c2	-0.24440292
150	0xbe0c2c6e	-0.13688824
151	0x3e2deb4a	0.16984287
152	0xbe228709	-0.15871824
153	0x3d08aa68	0.033365637
154	0xbe698049	-0.22802843
155	0x3e0bdeb4	0.13659173
156	0xbe13a1ba	-0.14417163
157	0x3d766338	0.060153216
158	0x3db47690	0.088116765
159	0xbe4ae73f	-0.19814776
160	0x3ca60cb0	0.020269722
161	0xbb36bc80	-0.002788335
162	0x3e1e8a0c	0.15482348
163	0x3dccccdc	0.10000011
164	0xbdfc235c	-0.12311432
165	0xbe2888e1	-0.16458465
166	0xbe83bfa8	-0.2573216
167	0xbc10fd40	-0.008849442
168	0xbd6aa970	-0.057290494
169	0x3dd33060	0.10311961
170	0x3dd5b3d4	0.1043469
171	0x3e8ecfae	0.27892822
172	0xbe2b8664	-0.16750485
173	0xbc0dd5e0	-0.008656949
174	0x3e936fca	0.28796226
175	0xbdc7432c	-0.09729609
176	0x3e5737a2	0.21017316
177	0xbd300ec8	-0.042982846
178	0xbcc40490	-0.023927957
179	0x3e44d132	0.19220427
180	0x3d0e2140	0.03469968
181	0x3dd5009c	0.10400507
182	0x3e921e0c	0.2853855
183	0x3c868410	0.016420394
184	0x3e824440	0.25442696
185	0x3e58ff60	0.21191168
186	0x3e5bf728	0.21481001
187	0x3d68bf30	0.056822956
188	0x3e1a8010	0.15087914
189	0x3e7b3600	0.24532318
190	0xbe306176	-0.17224678
191	0x3e5e6650	0.21718717
192	0xbdf91b3a	-0.12163396
193	0xbe2f8a94	-0.17142707
194	0xbe8ceb88	-0.27523446
195	0xbe1b0f1f	-0.15142487
196	0x3e7b3f34	0.24535829
197	0x3d6b3628	0.057424694
198	0xbe870a90	-0.26375246
199	0x3d1df7c8	0.03856638
200	0x3d522aa0	0.05131018
201	0xbe2f02a2	-0.17090848
202	0xbdb057d0	-0.08610499
203	0x3e4e20c4	0.20129687
204	0x3c21c7a0	0.009874254
205	0x3e898946	0.26862544
206	0xbbe64940	-0.007027775
207	0x3e595b48	0.21226227
208	0xbe1330b1	-0.14374043
209	0x3e819820	0.25311375
210	0x3e9048c2	0.2818051
211	0x3dd05dac	0.101741165
212	0xbe7b36a1	-0.24532558
213	0xbe77ef0a	-0.2421228
214	0xbe8d5266	-0.27601928
215	0xbd2b1c48	-0.041775018
216	0xbd106028	-0.03524795
217	0x3dd84e20	0.10561776
218	0xbc9f20f0	-0.019424886
219	0xbd8cbbaa	-0.068717316
220	0x3e7ba5c4	0.24574953
221	0x3dff9560	0.12479663
222	0x3dafdca0	0.08587003
223	0xbdc81124	-0.09768894
224	0x3e8bb51e	0.2728662
225	0xbcde81b0	-0.02716145
226	0xbe713cd0	-0.23558354
227	0xbe0a5d3b	-0.13512127
228	0xbe848ea5	-0.2589008
229	0xbda16b8e	-0.078818426
230	0x3e62ea18	0.22159612
231	0xbdee169e	-0.11625408
232	0xbe5d1560	-0.21590185
233	0xbe78a425	-0.24281366
234	0xbd077da0	-0.03307879
235	0xbd619d08	-0.055081397
236	0xbe59ef80	-0.21282768
237	0xbe5f7d16	-0.2182506
238	0xbe37e266	-0.17957458
239	0xbe83cea6	-0.25743598
240	0x3dc77098	0.097382724
241	0xbe720b1b	-0.23637049
242	0x3e54c240	0.20777225
243	0xbe2bc6d2	-0.16775063
244	0x3e923380	0.28554916
245	0x3e41715e	0.18890902
246	0x3e2f5164	0.17120892
247	0xbd6ad6fc	-0.05733393
248	0x3e8eb958	0.2787578
249	0x3e7f6454	0.24940616
250	0x3e83d88c	0.2575115
251	0x3e5ce288	0.2157079
252	0x3d895d08	0.067071974
253	0xbc1a77e0	-0.0094279945
254	0x3d99a16c	0.07501492
255	0x3e4ad6f4	0.1980856

emotion_recognition_model/eda_representation/bottleneck/MatMul f4 [40, 32]
0	0x3c708a20	0.014681369
1	0x3e4579b6	0.1928471
2	0xbb073200	-0.0020629168
3	0xbe42f133	-0.19037323
4	0xbdece922	-0.11567904
5	0xbdfc31de	-0.12314199
6	0x3d768b70	0.06019157
7	0xbe4c518e	-0.19952986
8	0x3e727658	0.23677957
9	0xbe22bec0	-0.15893078
10	0x3e50e35a	0.20399228
11	0x3e564e02	0.20928195
12	0xbd45fb0c	-0.04833512
13	0xbd78ec50	-0.06077224
14	0xbe45072e	-0.1924102
15	0xbe839364	-0.25698388
16	0xbe49affc	-0.19696039
17	0xbe699871	-0.22812058
18	0x3d52e820	0.051490903
19	0x3e4ea516	0.20180163
20	0x3d13c548	0.036076814
21	0xbe88e77d	-0.26739112
22	0x3d8990c8	0.06717068
23	0x3d1b6220	0.037935376
24	0xbe41e812	-0.18936184
25	0xbe05e2a2	-0.13074735
26	0xbe88330a	-0.2660144
27	0x3dd712cc	0.10501632
28	0xbdf74a88	-0.120747626
29	0x3e0bc6ec	0.13650101
30	0xbd937e9a	-0.07201882
31	0x3e16585e	0.14682147
32	0xbe7fe940	-0.24991322
33	0xbc31d180	-0.010853171
34	0xbe761508	-0.2403146
35	0xbe26bb5c	-0.1628241
36	0xbe3c8900	-0.18411636
37	0xbe6a5c21	-0.22886707
38	0xbdfeac98	-0.124352634
39	0xbdd47e0c	-0.10375604
40	0xbe0f47a4	-0.13992172
41	0x3cf17d60	0.029478729
42	0x3da1a878	0.07893461
43	0x3e758d2c	0.23979634
44	0x3d9c3f78	0.07629293
45	0x3e0be598	0.13661802
46	0x3e11a59a	0.14223328
47	0xbe691f9d	-0.22765966
48	0xbe926ab5	-0.28597036
49	0xbe5d1848	-0.21591294
50	0x3e54c888	0.20779622
51	0x3ded6f70	0.11593521
52	0x3e2f6f0c	0.17132205
53	0x3e1ec3e4	0.15504414
54	0x3e39bed2	0.18139198
55	0xbc497380	-0.012295604
56	0x3d907a78	0.07054609
57	0xbe1571f8	-0.14594257
58	0x3e70f084	0.2352925
59	0x3e826318	0.25466228
60	0x3e30cca2	0.17265561
61	0xbe671976	-0.22568306
62	0xbdf8e420	-0.121528864
63	0xbe2a4120	-0.16626406
64	0x3e50ab4c	0.20377845
65	0x3ccc4270	0.024934024
66	0x3e835746	0.25652522
67	0x3e3c272e	0.18374321
68	0x3cd4dfd0	0.025985628
69	0x3d662548	0.056187898
70	0x3db05e58	0.08611745
71	0x3e8e4664	0.2778808
72	0x3e911702	0.28337866
73	0xbdc45130	-0.09585798
74	0xbd81866a	-0.063244656
75	0xbdd6f068	-0.104950726
76	0xbe52a950	-0.205724
77	0x3e7049e4	0.23465687
78	0xbe58570c	-0.21126956
79	0x3e279296	0.16364512
80	0xbe0c90df	-0.13727139
81	0x3e21f74a	0.1581699
82	0x3e6cb9e0	0.2311778
83	0xbe1b4b62	-0.15165475
84	0xbe33bc62	-0.17552331
85	0xbd90b6f2	-0.07066144
86	0x3d825cb0	0.06365335
87	0xbe422d68	-0.18962634
88	0xbe0c01b5	-0.13672526
89	0xbd5372ec	-0.05162327
90	0xbdc647f2	-0.09681691
91	0x3e57d958	0.21079004
92	0x3ce4d7c0	0.027934909
93	0x3e36bbb6	0.17845044
94	0x3ddd7d90	0.10814965
95	0x3e5a65e4	0.2132793
96	0xbe5810aa	-0.21100107
97	0xbd7ca6e4	-0.061682597
98	0xbe5934bb	-0.21211521
99	0xbe168fe3	-0.14703326
100	0x3e3aa628	0.18227446
101	0xbd24e9cc	-0.04026203
102	0xbe4ce195	-0.20007928
103	0x3e4d4bec	0.20048493
104	0x3db9e0e4	0.090760976
105	0x3dac17f8	0.08403009
106	0x3e87e390	0.26540804
107	0x3d388a58	0.04505381
108	0x3dbed8c0	0.093186855
109	0x3e1bb648	0.15206254
110	0xbe4ca49e	-0.19984671
111	0xbbf7e780	-0.0075654387
112	0x3dce7af0	0.10082042
113	0xbdaf2ade	-0.08553098
114	0xbe3f04af	-0.1865413
115	0xbb942040	-0.004520446
116	0x3e22777c	0.15865892
117	0x3cfcd5c0	0.030863643
118	0xbe2edc74	-0.17076284
119	0xbe5ffd4a	-0.21873966
120	0xbd6660c4	-0.056244627
121	0xbde4b2b6	-0.11166899
122	0xbe1598d1	-0.14609076
123	0xbe910b4a	-0.28328925
124	0x3d02e488	0.031956226
125	0x3e36bd04	0.17845541
126	0x3e454b78	0.1926707
127	0x3db3c950	0.08778632
128	0xbe6e1f3d	-0.23254104
129	0xbe7cf822	-0.2470403
130	0xbcbcef60	-0.023063362
131	0xbe1091de	-0.14118144
132	0x3e3c8fc0	0.18414211
133	0x3e1b9ca0	0.15196466
134	0xbe92a419	-0.28640822
135	0x3db22df4	0.08700171
136	0xbde17116	-0.110078976
137	0xbe8c9cae	-0.27463287
138	0x3e44f0fc	0.19232553
139	0x3dc52a3c	0.09627196
140	0xbe7b4592	-0.24538258
141	0x3def9d04	0.1169987
142	0xbdba2388	-0.09088808
143	0xbe8d8264	-0.27638543
144	0xbe39800d	-0.18115254
145	0x3e734940	0.23758411
146	0xbe1b0f2d	-0.15142508
147	0xbbaa4e00	-0.0051972866
148	0x3e238942	0.15970328
149	0x3d4fe588	0.050756007
150	0x3d5d0058	0.053955406
151	0xbd84c400	-0.064826965
152	0xbdcd5f36	-0.10027926
153	0xbd9d2f30	-0.07675016
154	0xbda5cf0c	-0.08096132
155	0x3e588490	0.21144319
156	0x3d30ad20	0.043133855
157	0xbddafc88	-0.10692698
158	0x3e8681bc	0.26270854
159	0x3e0085ea	0.12551084
160	0xbe5c4292	-0.2150977
161	0x3e1bbf8e	0.15209791
162	0x3e833f16	0.25634068
163	0xbb8b2c40	-0.0042472184
164	0x3e8c9820	0.27459812
165	0xbe2cb896	-0.16867289
166	0x3e73f150	0.23822522
167	0xbe82ec24	-0.25570786
168	0xbe3ca194	-0.18421012
169	0xbc502ca0	-0.012705952
170	0xbca73390	-0.02041033
171	0x3d6284c8	0.05530241
172	0x3de31238	0.11087459
173	0xbe8e7dd6	-0.2783038
174	0x3d8cda14	0.068775326
175	0xbe5c73ea	-0.21528593
176	0xbc35a0e0	-0.011085719
177	0xbab8b700	-0.0014092624
178	0xbe6a6460	-0.22889853
179	0xbca4a8f0	-0.020100087
180	0x3e049970	0.12949157
181	0xbe43b7aa	-0.19113031
182	0xbe2c1f31	-0.16808774
183	0xba86a600	-0.001027286
184	0xbe2603a3	-0.16212325
185	0x3e89fdd0	0.26951456
186	0x3c2da240	0.010597765
187	0xbe786627	-0.24257718
188	0x3e28f2c0	0.16498852
189	0xbb8a3dc0	-0.004218787
190	0xbe67addc	-0.22624916
191	0xbe4d30fc	-0.20038217
192	0x3e33f512	0.17573956
193	0xbdc19c8c	-0.09453687
194	0xbe577418	-0.2104038
195	0xbdd71004	-0.105011016
196	0xbe3d376f	-0.18478177
197	0xbe6a1002	-0.22857669
198	0xbe91f23d	-0.28505126
199	0x3e30c2fc	0.1726188
200	0x3e581c0c	0.21104449
201	0x3e4ab6ce	0.19796297
202	0xbd2104dc	-0.039311275
203	0xbd7d60b8	-0.061859816
204	0x3cbe0460	0.023195446
205	0x3e3b3dce	0.18285295
206	0xbe198da2	-0.14995435
207	0x3e318df4	0.17339307
208	0xbe5e4f9e	-0.21710059
209	0xbe8797ea	-0.2648309
210	0x3e4d4de8	0.2004925
211	0x3c2722e0	0.010201186
212	0x3c0f8d40	0.008761704
213	0x3e715620	0.2356801
214	0x3b460380	0.0030214489
215	0xbe317292	-0.17328861
216	0x3e4450ee	0.19171497
217	0x3e6f6148	0.23376954
218	0xbe690206	-0.22754678
219	0x3e0dc6d2	0.13845375
220	0x3e91c978	0.2847402
221	0x3d9e36ec	0.07725319
222	0xbc1e3d80	-0.009658217
223	0x3d8e0780	0.06935024
224	0x3e3b6fac	0.18304318
225	0x3e441822	0.19149831
226	0x3a912d00	0.0011076033
227	0x3d8fca28	0.0702098
228	0xbdbc8a8e	-0.09206115
229	0x3c1208e0	0.008913249
230	0x3e6e3410	0.23262048
231	0x3e6d9688	0.23201954
232	0xbe53ec4e	-0.20695612
233	0x3e4b994e	0.198827
234	0x3e5efbe4	0.21775776
235	0xbe8562e3	-0.26052007
236	0xbdb5729c	-0.08859751
237	0xbe7aa929	-0.24478592
238	0x3e35dece	0.17760774
239	0xbe675398	-0.22590482
240	0x3e89f672	0.26945835
241	0xbe433534	-0.19063264
242	0xbe150ff3	-0.14556865
243	0xbd7f0b74	-0.062266782
244	0xbce7d730	-0.028300852
245	0xbe397a34	-0.18113023
246	0xbe3cc11d	-0.18433042
247	0x3de892ac	0.113561004
248	0x3d0532a8	0.032519013
249	0x3e9174aa	0.2840932
250	0x3e5ae000	0.21374512
251	0xbdec9f16	-0.11553781
252	0x3d006da8	0.031354576
253	0xbda85e02	-0.082210556
254	0xbd87ecd4	-0.06636968
255	0xbda1b834	-0.07896462

emotion_recognition_model/tmp_representation/bottleneck/MatMul f4 [40, 32]
0	0x3dd3e780	0.103468895
1	0x3d16d0f0	0.036820352
2	0x3de22088	0.11041361
3	0x3e638d40	0.22221851
4	0x3e2e2268	0.17005312
5	0x3e89f652	0.2694574
6	0x3e749bf0	0.2388761
7	0xbdc0ac8c	-0.09407911
8	0xbe3932d0	-0.1808579
9	0xbe8ca9fc	-0.27473438
10	0x3da140a8	0.0787366
11	0xbe359d54	-0.17735797
12	0x3d85428c	0.065068334
13	0xbe5ec9b5	-0.21756633
14	0x3cd19400	0.025583267
15	0xbe3313d0	-0.17488027
16	0xbe0ecf5f	-0.13946293
17	0xbe8a5406	-0.2701723
18	0x3de67894	0.11253467
19	0xbcabd8f0	-0.020977467
20	0x3dafcefc	0.08584401
21	0xbdbd6f14	-0.09249702
22	0x3e5daf2c	0.21648854
23	0xbc92cec0	-0.017920852
24	0x3e2fe030	0.17175364
25	0x3e14ed04	0.1454354
26	0x3e882126	0.2658779
27	0x3e7c2e14	0.24626952
28	0x3e5012d2	0.2031968
29	0x3deb5444	0.11490682
30	0x3e1c8fe4	0.15289265
31	0x3e1478b8	0.14499176
32	0x3e3c02a4	0.18360382
33	0x3e70cbbc	0.23515218
34	0x3c0aa380	0.008461833
35	0xbe69d8f2	-0.22836664
36	0xbd42b550	-0.047536194
37	0x3bedef00	0.007261157
38	0x3e917462	0.28409106
39	0xbd7015f8	-0.0586147
40	0x3dc38ab8	0.09547943
41	0xbd1ece54	-0.03877099
42	0x3e081350	0.13288617
43	0x3e839dca	0.2570632
44	0xbe37549a	-0.17903367
45	0xbdd42150	-0.10357916
46	0xbd59ce08	-0.053175002
47	0x3cd53720	0.026027262
48	0x3e828678	0.25493217
49	0xbcd29840	-0.025707364
50	0x3e7ece60	0.24883413
51	0xbe76f584	-0.24117094
52	0xbe30bede	-0.1726031
53	0xbd4c651c	-0.049901113
54	0xbc3b4ae0	-0.011431426
55	0xbd3df1bc	-0.046373114
56	0xbe8d7c8a	-0.27634078
57	0x3db386a0	0.08765912
58	0x3a452a00	0.0007521212
59	0xbe0ecf15	-0.13946183
60	0x3cb9f180	0.022698164
61	0xbe55734c	-0.20844764
62	0xbcc0a500	-0.023516178
63	0x3b963300	0.0045837164
64	0x3d478020	0.048706174
65	0xbe2c07f0	-0.16799903
66	0x3df8d570	0.12150085
67	0xbe8ba1b2	-0.272718
68	0xbcc74720	-0.024325907
69	0x3e0ed5b4	0.13948709
70	0x3d7dede0	0.061994433
71	0x3d094018	0.03350839
72	0xbe791385	-0.24323852
73	0xbd82b906	-0.06382947
74	0x3d8da458	0.06916112
75	0x3e555b96	0.20835719
76	0xbe4fb235	-0.20282824
77	0xbe259533	-0.16170196
78	0x3d56bfe0	0.05242908
79	0xbd96d228	-0.07364303
80	0x3e918fc4	0.28429997
81	0xbde5496e	-0.11195646
82	0xbd7ec01c	-0.06219493
83	0x3e067ff2	0.13134745
84	0xbe6017fa	-0.21884146
85	0x3e678cd4	0.22612315
86	0x3d9d1818	0.07670611
87	0x3e099950	0.1343739
88	0xbe72f903	-0.23727803
89	0xbd986e86	-0.07442956
90	0x3d729f90	0.059234202
91	0x3d7fba40	0.06243348
92	0xbd8760b6	-0.06610243
93	0x3e504aa6	0.20340976
94	0x3dc69900	0.09697151
95	0x3e3c7494	0.18403846
96	0xbd9cd90c	-0.07658586
97	0x3e193a50	0.1496365
98	0x3e675338	0.22590339
99	0xbe498590	-0.19679856
100	0x3e7587ac	0.23977536
101	0xbd9675e2	-0.07346703
102	0x3e4620d6	0.19348463
103	0xbdb61ee0	-0.08892608
104	0xbc7bfa80	-0.015379548
105	0x3c814a10	0.015782386
106	0x3d9534c4	0.07285455
107	0xbb9ad4c0	-0.004725069
108	0xbdafef86	-0.08590607
109	0x3d0ec338	0.034854144
110	0xbe606a6e	-0.219156
111	0xbe8bc181	-0.2729607
112	0xbe462c2a	-0.19352785
113	0x3d3b32a8	0.045702606
114	0xbe8d4fa1	-0.27599815
115	0xbe718b83	-0.23588376
116	0xbe84da9d	-0.2594804
117	0x3e566d4e	0.20940134
118	0x3da28c58	0.07936925
119	0xbc104520	-0.008805543
120	0x3da72ecc	0.08163223
121	0x3e884014	0.26611388
122	0x3dcfa524	0.1013892
123	0x3be12600	0.006870985
124	0xbc7f0d60	-0.015567154
125	0xbe215c7e	-0.15757939
126	0xbd8fe718	-0.070264995
127	0x3e91cc88	0.28476357
128	0x3c45a340	0.012062848
129	0x3e90ea58	0.2830379
130	0xbe938819	-0.28814772
131	0xbd7e8aa4	-0.062143937
132	0xbd957cfa	-0.07299228
133	0x3d93b838	0.07212871
134	0xbe3f1a56	-0.1866239
135	0xbc052d60	-0.008128494
136	0x3dc1f964	0.094713956
137	0x3df4e3f8	0.11957544
138	0xbe1ef018	-0.15521276
139	0xbe46f7ce	-0.19430467
140	0x3e87cce6	0.26523513
141	0xbd6477c0	-0.055778265
142	0x3d935164	0.071932584
143	0xbd702a50	-0.058634102
144	0xbd8687e2	-0.06568886
145	0xbdba41aa	-0.09094556
146	0xbe30b9fa	-0.17258444
147	0xbd6da3b0	-0.058017433
148	0x3d452c98	0.04813823
149	0xbd2ac9f0	-0.04169649
150	0xbe086609	-0.13320173
151	0x3b2ea180	0.0026646554
152	0x3d1e9148	0.03871277
153	0x3e2ed882	0.17074779
154	0x3e1ba110	0.15198159
155	0x3e8e0a1e	0.27742094
156	0x3e07b71e	0.13253447
157	0xbe43843e	-0.19093415
158	0x3e3305fe	0.17482755
159	0x3dc277cc	0.09495506
160	0x3df71574	0.12064639
161	0xbe1c6edf	-0.15276669
162	0x3cada860	0.021198452
163	0x3e041d8e	0.12901899
164	0x3e8488ee	0.2588572
165	0xbe8c3500	-0.27384186
166	0xbe3cfeba	-0.18456545
167	0x3e0ee2e8	0.13953745
168	0xbe244e6c	-0.1604554
169	0x3de68bd8	0.11257142
170	0x3e234546	0.15944394
171	0xbe000ca6	-0.12504825
172	0x3ceb5fe0	0.02873224
173	0x3de417f0	0.11137378
174	0xbdf23266	-0.11826019
175	0xbe939c00	-0.28829956
176	0xbe20c1df	-0.15698956
177	0xbe0b55ba	-0.13606921
178	0x3db18a34	0.08668938
179	0x3e790c40	0.24321079
180	0xbd102318	-0.035189718
181	0xbe910167	-0.28321382
182	0xbe124cc9	-0.14287104
183	0xbe2bdb9b	-0.16782992
184	0x3e927e1c	0.2861184
185	0xbc6c4940	-0.014421761
186	0xbde44bde	-0.11147283
187	0xbe4f627a	-0.2025241
188	0xbe4890a4	-0.19586426
189	0xbdc38094	-0.09546009
190	0xbddac77c	-0.1068258
191	0xbd894cde	-0.067041144
192	0x3e385d56	0.18004355
193	0xbe298ea8	-0.16558325
194	0xbe7dfa44	-0.248025
195	0x3dc0674c	0.09394702
196	0x3e350680	0.17678261
197	0x3dd094ec	0.101846546
198	0x3e5b228c	0.21399897
199	0xbdb2f11a	-0.08737393
200	0x3e2e7fb4	0.17040902
201	0x3e00a54e	0.12563059
202	0x3e36a656	0.1783689
203	0xbdaa99b2	-0.08330096
204	0x3e847c6e	0.25876182
205	0x3a75fc00	0.0009383559
206	0xbc10e480	-0.008843541
207	0xbd8ad270	-0.06778419
208	0xbe529508	-0.20564663
209	0xbdd2ac34	-0.102867514
210	0xbe53f5ec	-0.2069928
211	0xbe08c912	-0.13357952
212	0xbdf7c110	-0.120973706
213	0x3cecdfb0	0.028915256
214	0x3e852eb8	0.26012206
215	0x3e714148	0.23560059
216	0x3e8e2600	0.27763367
217	0xbd87623a	-0.06610532
218	0x3db75298	0.089513004
219	0xbd0ead30	-0.034833133
220	0x3e6c02cc	0.23047942
221	0x3c4c0400	0.012452126
222	0x3e16fe56	0.14745459
223	0xbdaa0a28	-0.083027184
224	0xbd89bee4	-0.067258626
225	0xbe846093	-0.2585493
226	0x3e7b2a20	0.24527788
227	0x3de97418	0.11399096
228	0x3e9164ae	0.28397125
229	0x3e76320c	0.24042529
230	0xbe5a7dfc	-0.21337122
231	0xbda7ebb2	-0.08199252
232	0x3e48a63e	0.19594666
233	0xbd6475cc	-0.055776402
234	0x3e7da35c	0.24769348
235	0x3e786350	0.24256635
236	0x3dff6600	0.12470627
237	0xbe713e62	-0.23558953
238	0xbdcd259e	-0.100169405
239	0xbe594398	-0.21217191
240	0x3e2351aa	0.15949121
241	0x3e86b424	0.2630931
242	0x3e55ec9c	0.2089104
243	0x3e72adbc	0.23699087
244	0xbd044f68	-0.03230229
245	0xbe810419	-0.2519844
246	0xbe86b6ed	-0.26311436
247	0xbe82f7e0	-0.2557974
248	0x3d18e1c8	0.037324697
249	0xbe41d808	-0.18930066
250	0x3e8c4ea8	0.2740376
251	0xbe580ba6	-0.21098194
252	0xbe93bf96	-0.28857106
253	0x3e86a05a	0.26294214
254	0xbd2f2fb4	-0.042770103
255	0x3d2051d0	0.039140522

emotion_recognition_model/fusion_32/Tensordot/MatMul f4 [32, 40]
0	0x3e8b2531	0.27176812
1	0xbe99baae	-0.30025238
2	0x3d9150c8	0.07095486
3	0x3e5b5c8e	0.21422026
4	0x3db54c21	0.08852411
5	0x3e7ce115	0.24695237
6	0x3d22a758	0.039710373
7	0xbdafcd07	-0.08584028
8	0x3e6ddc6d	0.23228617
9	0xbc773063	-0.01508722
10	0x3e27b2bd	0.16376777
11	0x3e5f8528	0.21828139
12	0xbcd7e594	-0.026354589
13	0x3e3fab8a	0.1871778
14	0x3e0d8e9e	0.13823935
15	0xbe8589d3	-0.26081714
16	0x3e7b7c92	0.24559239
17	0xbe1ab040	-0.15106297
18	0x3ea181ef	0.31544444
19	0xbe950276	-0.2910344
20	0x3dbeac30	0.09310186
21	0x3e62af57	0.221372
22	0xbde3a6ad	-0.11115775
23	0x3e0bc00a	0.13647476
24	0x3e5b0094	0.2138694
25	0xbd292d38	-0.04130289
26	0x3e952308	0.2912829
27	0x3e8ed99c	0.27900398
28	0x3e75eab8	0.2401532
29	0xbe4f3c00	-0.20237732
30	0x3cdcefc9	0.026969807
31	0x3db74e1d	0.08950446
32	0x3d133cc1	0.03594661
33	0x3dfd9f47	0.12383895
34	0x3e49bdb3	0.19701271
35	0xbdb2acae	-0.08724342
36	0x3c894f5a	0.01676147
37	0xbe3f36ab	-0.18673198
38	0xbe901653	-0.28142032
39	0x3d60e015	0.0549012
40	0x3e7ca45c	0.24672073
41	0xbd899764	-0.067183286
42	0xbdc0232c	-0.093817085
43	0xbf1bcb30	-0.60856915
44	0x3d5e63b1	0.054294292
45	0xbd93a573	-0.07209291
46	0x3d91fe64	0.07128599
47	0x3e7bfe4a	0.24608722
48	0x3df8cae4	0.12148073
49	0xbcf1c052	-0.02951065
50	0xbd826c7e	-0.063683495
51	0x3ee2929c	0.4425248
52	0x3d4125ec	0.047155306
53	0xbc8543ae	-0.016267624
54	0xbed719a1	-0.4201174
55	0xbe061014	-0.13092071
56	0xb9b63bd8	-0.00034758332
57	0xbe0428d5	-0.12906201
58	0x3e546e5d	0.20745225
59	0xbeb41e24	-0.35179245
60	0x3d00c4e2	0.031437762
61	0xbe6e8784	-0.23293883
62	0xbe93686c	-0.28790605
63	0xbc183999	-0.009291076
64	0xbe01af0a	-0.12664428
65	0xbc875868	-0.016521648
66	0x3e4d2496	0.20033488
67	0x3de4b51d	0.11167357
68	0xbd74ba5c	-0.05974804
69	0x3e3be6b0	0.18349719
70	0xbe87e144	-0.26539052
71	0x3e420b07	0.18949519
72	0xbde45bd8	-0.1115033
73	0xbe22b938	-0.15890968
74	0x3e66cede	0.22539851
75	0xbe4f49cb	-0.20242994
76	0x3e3a8f9d	0.18218847
77	0xbe77758a	-0.24165931
78	0x3e98ca69	0.29841927
79	0xbe9beed1	-0.3045564
80	0x3e56fa96	0.20994028
81	0xbe64ac92	-0.22331455
82	0xbe6e8f77	-0.23296915
83	0x3e462ff3	0.19354229
84	0x3e108379	0.14112653
85	0x3e84f5c3	0.2596875
86	0x3e7eb6ba	0.24874392
87	0x3e0ba606	0.13637552
88	0x3e1e773f	0.15475176
89	0xbea71d0c	-0.32639349
90	0xbe2f16f9	-0.17098607
91	0xbd9650c9	-0.07339627
92	0xbd842d04	-0.064538985
93	0x3d7faf8e	0.06242328
94	0xbee129a9	-0.43977097
95	0x3d8d41f8	0.06897348
96	0xbdadb768	-0.084822476
97	0xbe20ed51	-0.15715529
98	0xbe27c415	-0.16383393
99	0xbd1a3f86	-0.037658237
100	0xbdf4eabd	-0.11958835
101	0xbeda702d	-0.42663708
102	0xbe37c297	-0.17945324
103	0x3e531190	0.20612168
104	0xbea37bb8	-0.31930327
105	0xbe6abfbf	-0.22924708
106	0x3e7093cb	0.23493879
107	0x3e6089fe	0.2192764
108	0x3eeba08f	0.46020934
109	0x3d088e3e	0.033338778
110	0xbc7eb88f	-0.015546932
111	0x3d3d8094	0.0462652
112	0xbe567d96	-0.20946345
113	0x3d891df9	0.0669517
114	0x3e041fbd	0.12902732
115	0xbd206f46	-0.03916862
116	0xbe898cf1	-0.26865342
117	0x3d94511a	0.072420314
118	0xbd4a1507	-0.04933646
119	0xbdd103a2	-0.10205771
120	0xbd995bd3	-0.07488217
121	0x3e0cd0f3	0.13751583
122	0xbe71aadd	-0.23600335
123	0x3df965c7	0.121776156
124	0xbe9b6c2b	-0.30355963
125	0x3e7bf42f	0.24604867
126	0xbea46027	-0.32104608
127	0xbe7d8755	-0.24758656
128	0xbe5336e0	-0.20626402
129	0x3e7033e0	0.23457289
130	0x3d8ebf0d	0.06970034
131	0x3e873fd9	0.264159
132	0xbe74ccd9	-0.23906268
133	0xbeddb31b	-0.4330071
134	0xbe824d70	-0.25449705
135	0xbdb15cd2	-0.08660282
136	0xbe2466ca	-0.16054836
137	0xbf0ab7ea	-0.5418688
138	0x3e34e8e5	0.17666967
139	0xbe49bed2	-0.19701698
140	0x3e66634c	0.22498816
141	0xbea11670	-0.3146243
142	0xbd0470bd	-0.032334078
143	0x3de7c3b7	0.113166265
144	0x3b2b7a3f	0.0026165394
145	0xbc782eb1	-0.015147851
146	0x3ea19362	0.31557757
147	0x3e899682	0.2687264
148	0xbe903e5a	-0.2817257
149	0x3e9c9602	0.30583197
150	0xbe294019	-0.16528358
151	0xbe5be706	-0.21474847
152	0xbb7cb6ec	-0.0038561178
153	0x3eb98b60	0.36239147
154	0x3e3fef0a	0.1874353
155	0x3df6f787	0.12058931
156	0xbe9c45cb	-0.30521998
157	0xbe981065	-0.29700008
158	0x3e65b293	0.22431402
159	0xbb8020e7	-0.0039101723
160	0x3d99c8aa	0.07508977
161	0xbe71b0d1	-0.23602606
162	0xbe1f596d	-0.15561457
163	0xbe7fc0cf	-0.24975894
164	0xbd96b762	-0.07359196
165	0x3ea2299a	0.31672364
166	0x3daf2630	0.085522056
167	0x3daf3399	0.08554763
168	0x3e033d52	0.1281636
169	0xbe64e9cf	-0.22354816
170	0x3e361b10	0.17783761
171	0x3ecb54c4	0.3971311
172	0x3e3253a7	0.17414723
173	0x3dafe43d	0.08588455
174	0x3e0d13ba	0.13777056
175	0x3df653f5	0.12027732
176	0xbe5b0bdd	-0.21391244
177	0x3d28593a	0.041100718
178	0xbe557373	-0.20844822
179	0xbe86118e	-0.26185268
180	0x3e6b6e90	0.22991395
181	0xbec0b2e6	-0.3763649
182	0xbe2675e2	-0.16255906
183	0xbd96f8bb	-0.0737166
184	0x3dcc8da9	0.09987957
185	0x3ec5fc87	0.38669226
186	0xbdbcebab	-0.092246376
187	0x3e614eae	0.2200267
188	0xbd49aefc	-0.049239144
189	0x3eaf2f7c	0.34215915
190	0xbe606fae	-0.21917602
191	0xbd9eba28	-0.0775035
192	0xbe622448	-0.22084153
193	0xbdfa7e09	-0.122310705
194	0x3e3a044d	0.18165703
195	0x3e540fc5	0.2070914
196	0x3d57d21d	0.052690614
197	0x3d6c6ce5	0.057721037
198	0xbd0c45bf	-0.034246203
199	0xbe97ea18	-0.29670787
200	0x3e86394e	0.26215595
201	0x3db71448	0.08939415
202	0xbe7e6aa2	-0.24845365
203	0x3dd9eeff	0.10641288
204	0x3e4a0d7f	0.19731711
205	0xbd68eaf3	-0.05686469
206	0xbe25b6b5	-0.16182978
207	0xbe84c2d2	-0.25929886
208	0xbe59853b	-0.2124223
209	0x3e12361e	0.14278457
210	0xbeb5b2c5	-0.35487953
211	0x3e2befb9	0.16790666
212	0x3e970d6a	0.29502422
213	0xbe37e332	-0.17957762
214	0xbddc39e0	-0.10753226
215	0xbe052ee4	-0.13006169
216	0xbc675955	-0.0141204195
217	0x3cfb76cb	0.030696293
218	0xbe122c7b	-0.1427478
219	0xbddf4ed2	-0.10903706
220	0xbd84cb05	-0.064840354
221	0xbc41c444	-0.0118265785
222	0x3d87a6fc	0.066236466
223	0x3e902fa5	0.2816135
224	0xbdbf1fec	-0.093322605
225	0xbe57901b	-0.21051066
226	0xbe03fb11	-0.12888743
227	0xbd72991f	-0.05922806
228	0x3cbe1c73	0.023206925
229	0xbdc09303	-0.0940304
230	0xbdfa9b7b	-0.12236687
231	0xbe614183	-0.21997647
232	0x3e2401db	0.16016333
233	0x3df1eeff	0.11813163
234	0x3e00e26b	0.12586372
235	0x3bc10c75	0.0058913776
236	0x3e7bc2bd	0.24586006
237	0x3ec79b47	0.38985655
238	0x3d47c89e	0.048775308
239	0x3e68f4bf	0.22749613
240	0x3d3bc2db	0.045840126
241	0x3db26b2d	0.087118484
242	0xbbdb4739	-0.00669184
243	0xbe3a9bb0	-0.18223453
244	0xbe243dbe	-0.16039178
245	0x3e1bde3e	0.15221497
246	0xbe4330d7	-0.190616
247	0xbe8adc9e	-0.27121443
248	0xbe14e6ec	-0.14541215
249	0x3de06777	0.10957234
250	0xbd48f550	-0.049062073
251	0xbe36c4a9	-0.17848457
252	0xbe34553f	-0.17610644
253	0xbda50a89	-0.0805865
254	0x3e89dc97	0.2692611
255	0xbd2047ba	-0.039130904

emotion_recognition_model/fusion_16/Tensordot/MatMul f4 [16, 32]
0	0x3d6d2510	0.057896674
1	0x3e9bb93c	0.3041476
2	0xbeaadb18	-0.3337028
3	0xbe015be1	-0.12632705
4	0xbecccc25	-0.399995
5	0x3e9b9189	0.30384472
6	0x3e727079	0.23675717
7	0xbcc64176	-0.024201136
8	0xbe40a0cb	-0.18811338
9	0x3e0b2ff0	0.13592505
10	0x3ea73218	0.32655406
11	0xbe71e479	-0.23622312
12	0xbda6f401	-0.08152009
13	0xbdd1c149	-0.10241944
14	0xbe9f5fce	-0.3112778
15	0xbe8d78a9	-0.2763112
16	0xbeae06a5	-0.33989444
17	0x3cba7c40	0.022764325
18	0xbdc972f8	-0.09836382
19	0x3db14553	0.08655801
20	0xbe1e6d67	-0.15471421
21	0xbf7bf8c9	-0.9842649
22	0x3df92cea	0.1216677
23	0x3e0c49f9	0.13700093
24	0x3df84090	0.12121689
25	0xbd97cff9	-0.074127145
26	0xbeca282a	-0.39483768
27	0x3e9a6970	0.30158567
28	0x3cfcdc42	0.030866746
29	0x3dd89f41	0.1057725
30	0xbe261f9b	-0.16222994
31	0xbe2881f8	-0.16455829
32	0xbeb0e348	-0.34548402
33	0xbea2ac5f	-0.31772134
34	0x3e48e8f2	0.19620112
35	0x3dd521dc	0.10406849
36	0xbdc13931	-0.094347365
37	0x3e5d6a5b	0.21622603
38	0xbe95533c	-0.29165065
39	0x3e9422a1	0.2893267
40	0x3e36afaf	0.17840455
41	0xbd9c6a3c	-0.0763745
42	0x3edbb3e8	0.42910695
43	0x3c1e12aa	0.009648005
44	0xbd521961	-0.051293734
45	0x3d192b63	0.037394892
46	0xbe2b3fce	-0.16723558
47	0x3e0d7f15	0.13818009
48	0xbd4fa6e8	-0.050696284
49	0x3f004df6	0.5011896
50	0x3f36a87a	0.71350825
51	0x3e3e2ad0	0.18571019
52	0xbecc3f65	-0.39892116
53	0x3e57681b	0.21035807
54	0xbe978491	-0.29593328
55	0x3ec213e5	0.37905803
56	0xbda8d4b9	-0.082436986
57	0xbeab30c5	-0.33435646
58	0xbd6360f0	-0.05551237
59	0x3e8083ed	0.2510065
60	0x3da563f9	0.08075709
61	0xbe2ea1bc	-0.17053884
62	0xbbe45ec3	-0.0069693043
63	0xbf03cce0	-0.5148449
64	0x3ddee439	0.10883374
65	0x3eb10d72	0.3458057
66	0xbefa54ec	-0.48892915
67	0x3e92b3c1	0.28652766
68	0xbea654d0	-0.32486582
69	0xbe90e4d7	-0.2829959
70	0x3e28d202	0.16486362
71	0x3d15fa45	0.03661563
72	0xbec407a8	-0.3828709
73	0x3e8c436c	0.2739519
74	0xbe48fe6b	-0.19628303
75	0xbe62a897	-0.22134624
76	0xbc83eae5	-0.016103217
77	0x3d984e8b	0.07436856
78	0x3e1bdb64	0.1522041
79	0x3d163f95	0.03668173
80	0xbec41245	-0.3829519
81	0xbe553369	-0.20820393
82	0xbe5e9538	-0.2173661
83	0x3d5156d3	0.051108193
84	0xbdaa1bbd	-0.08306072
85	0x3e921ed8	0.28539157
86	0xbea99eb7	-0.33128902
87	0xbd36f4fa	-0.04466722
88	0xbe567233	-0.20942001
89	0x3dab9895	0.08378712
90	0x3d34344b	0.043995183
91	0x3d5d4008	0.054016143
92	0x3dff4a53	0.12465348
93	0xbe38f127	-0.18060742
94	0xbec0a3cf	-0.37624976
95	0x3e4d2406	0.20033273
96	0x3dae1b1e	0.08501266
97	0xbdf45a9a	-0.119313434
98	0xbeac9afd	-0.33711997
99	0xbe22849c	-0.15870899
100	0xbe709c25	-0.23497064
101	0xbcaf976e	-0.021434512
102	0xbe5d0f27	-0.21587811
103	0x3ec23e64	0.37938225
104	0x3d896b4b	0.06709918
105	0x3e61c338	0.22047126
106	0xbd69adb2	-0.057050414
107	0x3e02897f	0.12747763
108	0x3ddb0c4c	0.10695705
109	0xbe069aae	-0.13144943
110	0x3e75e96e	0.24014828
111	0x3f2448b5	0.6417344
112	0xbe9aad82	-0.302105
113	0x3db44062	0.088013425
114	0x3e5811e1	0.2110057
115	0xbefc8160	-0.49317455
116	0xbdda8585	-0.10669998
117	0x3b5cac2c	0.0033671958
118	0x3e5be7d4	0.21475154
119	0x3dd39212	0.10330595
120	0x3ec11808	0.37713647
121	0xbc89c1b5	-0.016816
122	0xbde71c75	-0.112847246
123	0xbec0f67d	-0.37688056
124	0xbd8ccd55	-0.068751015
125	0xbe389ec5	-0.18029316
126	0x3e14cb9f	0.145308
127	0xbd1c91f2	-0.03822512
128	0x3e57df80	0.21081352
129	0x3ce40828	0.02783592
130	0x3edeadba	0.43491918
131	0x3db07073	0.08615198
132	0x3e62b9ac	0.2214114
133	0xbeb0ffc5	-0.34570137
134	0x3e8bd167	0.273082
135	0x3cf4f1c6	0.029900443
136	0x3d02d86b	0.031944674
137	0xbdc0fc3c	-0.0942311
138	0x3e0bf9f4	0.13669568
139	0x3e883137	0.26600048
140	0x3e621c24	0.22081047
141	0xbd81cd1e	-0.06337951
142	0x3d83df4a	0.064390734
143	0x3e2beac5	0.16788776
144	0x3ea1014a	0.31446296
145	0xbec63e70	-0.3871951
146	0xbefddbd1	-0.4958177
147	0xbe43d755	-0.19125111
148	0xbe71a64d	-0.23598595
149	0x3e807e7e	0.25096506
150	0xbcdaab29	-0.026692944
151	0xbeea8136	-0.45801705
152	0xbece463a	-0.40287954
153	0xbca9b5e9	-0.020716624
154	0x3ed5cb56	0.41756696
155	0x3e62e881	0.22159006
156	0xbe04e7d9	-0.12979068
157	0x3e46c5ec	0.19411439
158	0x3e83c812	0.2573858
159	0x3e8a4adb	0.27010235
160	0x3e862ff6	0.26208466
161	0xbe898fa0	-0.2686739
162	0xbe483da4	-0.19554764
163	0xbe728440	-0.23683262
164	0xbe8c55b5	-0.2740914
165	0x3eb16ac6	0.34651774
166	0x3e6dd9bd	0.23227592
167	0x3e8ca457	0.2746913
168	0x3d9a1080	0.075226784
169	0x3ec48a07	0.38386557
170	0x3e7deae9	0.24796642
171	0x3e8a50ce	0.27014774
172	0x3e812c54	0.25229132
173	0x3d831809	0.06401069
174	0xbd698370	-0.057010114
175	0x3d2143e2	0.03937138
176	0x3d9d2497	0.076729946
177	0x3e29b6c6	0.16573629
178	0x3f475b10	0.77873325
179	0xbe3fb121	-0.18719913
180	0x3e913060	0.2835722
181	0x3e89ff8c	0.2695278
182	0xbf1dbece	-0.6161927
183	0x3e8702da	0.26369363
184	0xbdf10ef1	-0.11770428
185	0x3e1d0442	0.15333655
186	0x3e7ff95b	0.24997465
187	0xbe9a060a	-0.30082732
188	0xbe83e84b	-0.25763163
189	0x3e8f3a63	0.27974233
190	0xbf1cd2e4	-0.61259294
191	0x3e25e5fc	0.16201013
192	0x3e4606dd	0.19338556
193	0xbc375b9d	-0.011191276
194	0x3e266515	0.16249497
195	0x3e08476d	0.13308497
196	0xbec257fc	-0.37957752
197	0x3db94e2a	0.09048112
198	0x3df4453b	0.11927267
199	0xbe848c81	-0.25888446
200	0xbe963483	-0.29336938
201	0xbea2496d	-0.31696644
202	0x3e07ce4b	0.13262288
203	0xbe541ef2	-0.2071493
204	0x3d9a72f6	0.07541458
205	0xbe6fda03	-0.23423009
206	0xbe8da49a	-0.27664644
207	0xbee81c45	-0.45334068
208	0x3deaf530	0.11472547
209	0xbcd09fea	-0.025466878
210	0x3e6d8332	0.23194578
211	0x3eaa8532	0.33304745
212	0x3e63c5da	0.22243443
213	0xbf02c580	-0.5108261
214	0x3ea57f98	0.3232391
215	0x3d9cebbe	0.07662152
216	0x3e4efa30	0.20212626
217	0x3e19e987	0.1503049
218	0x3e4a0988	0.19730198
219	0x3eaa0100	0.33203888
220	0x3f064c84	0.52460504
221	0xbe9d9386	-0.30776614
222	0x3e703f89	0.23461737
223	0xbe1ab590	-0.15108323
224	0xbe9d2bef	-0.3069758
225	0xbf421262	-0.758093
226	0xbe0a95df	-0.13533734
227	0x3eaa7884	0.3329507
228	0xbeb55a19	-0.35420302
229	0x3dc8415d	0.09778092
230	0x3e695f1d	0.22790189
231	0xbef85cf0	-0.48508406
232	0xbe60d365	-0.2195564
233	0x3d81f8b1	0.06346262
234	0x3e3952ae	0.18097946
235	0xbd379e03	-0.044828426
236	0x3ee47e86	0.4462778
237	0xbf4b2fee	-0.7937001
238	0xb9c175ec	-0.00036899687
239	0x3e9add1c	0.30246818
240	0xbe1f0281	-0.15528299
241	0x3e04a9da	0.12955418
242	0x3eb0acad	0.3450674
243	0xbde8fc51	-0.113762505
244	0x3e5df0b0	0.21673846
245	0x3eb5166e	0.35368675
246	0x3de9dd39	0.11419148
247	0xbd9e52b7	-0.0773062
248	0x3d8a07bf	0.06739759
249	0x3e21e585	0.15810211
250	0xbe7a9722	-0.24471715
251	0x3e5ebad6	0.2175096
252	0xbf303061	-0.6882382
253	0x3dcd0e51	0.10012496
254	0x3e88c606	0.2671358
255	0x3e962c9b	0.29330906

emotion_recognition_model/dense_1_categorical/MatMul f4 [16, 64]
0	0xbdf2aa40	-0.11848879
1	0xbe3c3ee5	-0.18383367
2	0x3d7bd1d8	0.06147942
3	0xbe748ba6	-0.23881397
4	0x3dbbfd7f	0.0917921
5	0x3e91605e	0.28393835
6	0x3d2c35a8	0.042043358
7	0xbe1b0126	-0.15137157
8	0x3e2f053a	0.17091838
9	0xbe865739	-0.2623842
10	0xbb0d5e00	-0.002157092
11	0xbd726ce0	-0.059185863
12	0x3ce70d58	0.028204605
13	0x3dfe60dd	0.12420819
14	0x3e55ffac	0.20898312
15	0xbd260b94	-0.040538386
16	0xbd615459	-0.05501208
17	0x3e3794d1	0.17927863
18	0xbda4078b	-0.08009251
19	0x3e018dae	0.12651703
20	0x3c3a4676	0.011369338
21	0x3d267daf	0.040647205
22	0x3e58d646	0.21175489
23	0x3e4efd47	0.20213805
24	0x3e5013ae	0.20320007
25	0xbdbc02ea	-0.09180243
26	0xbdfe896a	-0.124285534
27	0x3deeb08c	0.116547674
28	0x3e433dca	0.1906654
29	0xbe5f3e19	-0.21801032
30	0xbde0e8aa	-0.10981877
31	0x3e26ff92	0.1630843
32	0x3e6873ab	0.22700374
33	0x3df19fd1	0.11798061
34	0x3e81451b	0.25248036
35	0xbe818710	-0.25298357
36	0xbdfd6e85	-0.123745956
37	0xbe0851c4	-0.13312441
38	0xbe551ff4	-0.2081297
39	0xbdb0a1e0	-0.08624625
40	0x3e7465a5	0.238669
41	0xbe4e16d2	-0.20125893
42	0xbda94f36	-0.082670614
43	0x3e36ca56	0.17850623
44	0xbd6dfbb3	-0.058101367
45	0xbe1507bb	-0.1455373
46	0x3e17c78a	0.14822212
47	0x3ca3dbe1	0.020002307
48	0x3e50a5e3	0.20375781
49	0xbe56fd0e	-0.2099497
50	0x3dd73183	0.105074905
51	0xbd6b1684	-0.05739452
52	0xbdfa4e9a	-0.12222023
53	0xbe8dd15e	-0.27698797
54	0xbe80e73f	-0.25176427
55	0x3deccd07	0.11562543
56	0x3e83c35e	0.2573499
57	0x3e539b4b	0.20664708
58	0xbe6a103e	-0.22857758
59	0xbe2e30a1	-0.17010738
60	0xbbb2d0a1	-0.0054569994
61	0x3e72032a	0.2363402
62	0xbe2e6a30	-0.17032695
63	0xbe5e8bbf	-0.21732996
64	0xbe339f28	-0.17541182
65	0x3e56d5b2	0.20979956
66	0xbdb50d50	-0.0884043
67	0xbe5a8a5e	-0.21341845
68	0x3deb79b6	0.11497824
69	0x3e3d8e81	0.18511392
70	0x3e68c118	0.2272991
71	0x3dc48b08	0.095968306
72	0xbe8d617b	-0.27613434
73	0xbd583ead	-0.052794147
74	0xbe5ba1d0	-0.21448445
75	0xbe15a0b9	-0.14612092
76	0x3e3f0174	0.18652898
77	0x3e4161e4	0.18884999
78	0x3e732afc	0.23746866
79	0xbd6132c0	-0.05498004
80	0xbdacc1cf	-0.084354036
81	0xbdfa02b5	-0.122075476
82	0xbca37aea	-0.01995607
83	0x3e15d2bc	0.1463117
84	0x3c698730	0.014253423
85	0xbe9a34f2	-0.3011852
86	0x3e6f7bb0	0.23387027
87	0xbe82bbf0	-0.2553401
88	0x3c65dca0	0.014029652
89	0xbe3c8670	-0.18410659
90	0xbe218a4d	-0.15775414
91	0xbd5481ec	-0.051881716
92	0x3a3681be	0.0006962082
93	0x3d990844	0.0747228
94	0x3df0d3cc	0.11759147
95	0x3ca3b13a	0.01998197
96	0x3dd63f2a	0.10461266
97	0xbd31254b	-0.043248456
98	0x3e65a864	0.22427517
99	0xbe8625a6	-0.26200598
100	0x3e5eb97d	0.21750446
101	0x3d3a6207	0.045503642
102	0xbc72fa7c	-0.014830228
103	0x3e0c8694	0.13723212
104	0xbe691cf7	-0.22764955
105	0xbda18daa	-0.078883484
106	0x3d8f32ec	0.069921345
107	0xbe8c1c81	-0.27365497
108	0x3df26ab9	0.11836762
109	0xbe876b6c	-0.26449144
110	0x3d5c8558	0.053838104
111	0x3df57b71	0.11986435
112	0x3da42b29	0.08016045
113	0xbb87f962	-0.004149602
114	0x3ca6618e	0.02031019
115	0x3e620d00	0.22075272
116	0x3e1f4a22	0.15555623
117	0xbe3a0ec0	-0.18169689
118	0xbdaa26cf	-0.083081834
119	0x3e1115e4	0.14168507
120	0x3e882d66	0.26597136
121	0xbe07e6c7	-0.13271628
122	0xbe2821db	-0.16419165
123	0xbd869e28	-0.06573135
124	0x3e0d85b7	0.1382054
125	0xbd41ba86	-0.047297023
126	0x3d86fa45	0.06590704
127	0x3d8a4c65	0.06752852
128	0x3cee6290	0.029099733
129	0xbe2e1bf3	-0.1700285
130	0xbe5d46ce	-0.21609041
131	0xbd4b42f4	-0.0496244
132	0x3e11146c	0.14167947
133	0xbedaabf9	-0.4270933
134	0xbe7f33f6	-0.24922165
135	0xbc1e8d80	-0.009677291
136	0x3e52ae58	0.2057432
137	0x3e842cc7	0.25815412
138	0xbe39884c	-0.181184
139	0xbd7cf9d4	-0.061761692
140	0x3e8e1158	0.27747607
141	0xbed7e884	-0.42169583
142	0x3e85e2f4	0.26149714
143	0xbf0d7687	-0.55258983
144	0x3de2d69b	0.11076089
145	0x3e65b383	0.2243176
146	0xbe45cf6a	-0.19317403
147	0xbd64b429	-0.055835877
148	0x3e0d895b	0.13821928
149	0xbdb70aa0	-0.089375734
150	0x3e84f02e	0.25964493
151	0x3de3aeb4	0.11117306
152	0xbe054ab0	-0.13016772
153	0xbd4d5ad5	-0.050135452
154	0xbdf46778	-0.119337976
155	0x3d49d6ed	0.049277235
156	0xbe391401	-0.18074037
157	0x3cc6f52c	0.024286829
158	0x3e81b176	0.25330704
159	0xbcc4515c	-0.023964576
160	0x3dd3c6ee	0.10340677
161	0x3e225aed	0.15854998
162	0x3d90dabf	0.070729725
163	0x3e9b94d6	0.3038699
164	0xbe2affb2	-0.16699103
165	0x3c7e3848	0.015516348
166	0xbf19dfcd	-0.6010712
167	0xbe1bfdab	-0.15233485
168	0x3c2bdb00	0.010489225
169	0xbe356df4	-0.17717725
170	0x3d285715	0.041098673
171	0x3da18a54	0.07887712
172	0xbe2ac8b8	-0.1667813
173	0xbefc04d2	-0.49222428
174	0x3e23ae56	0.15984473
175	0xbec77cbd	-0.38962355
176	0xbc90a1ba	-0.017655242
177	0x3eb44d76	0.35215348
178	0xbe9c23e8	-0.30496144
179	0xbe8f0b43	-0.2793828
180	0x3e61eac9	0.2206222
181	0x3e82a92b	0.2551969
182	0x3e6f38e6	0.23361549
183	0xbf0c456e	-0.5479344
184	0xbde31dd0	-0.11089671
185	0xbe90c093	-0.28271922
186	0x3e523adc	0.20530266
187	0x3c7a3451	0.015271262
188	0x3e90501f	0.28186128
189	0xbebbf4cc	-0.36710203
190	0xbe188031	-0.14892651
191	0xbd6f5685	-0.05843212
192	0x3e32aa72	0.17447832
193	0xbd04c0c6	-0.032410406
194	0xbe677b1e	-0.22605559
195	0xbd8029fc	-0.06258008
196	0xbe065972	-0.13120058
197	0xbe2adc90	-0.166857
198	0x3e58f7a6	0.2118822
199	0xbdb9775e	-0.090559706
200	0xbdfcd40b	-0.123451315
201	0x3e58159a	0.2110199
202	0xba1fb600	-0.0006092489
203	0x3e8345d2	0.25639206
204	0x3e776d62	0.2416282
205	0x3e321e03	0.17394261
206	0xbd227f0c	-0.039671943
207	0xbe752510	-0.2393992
208	0x3e408de8	0.18804133
209	0x3e82a808	0.25518823
210	0xbd55f857	-0.05223879
211	0x3dfc89aa	0.12330945
212	0x3e46bcff	0.19408034
213	0x3e7221c2	0.2364569
214	0x3e8d3b85	0.27584472
215	0xbe29e476	-0.16591057
216	0xbe39f338	-0.18159187
217	0xbd9fd3a2	-0.07804038
218	0x3d4072e4	0.04698457
219	0xbddfb9d9	-0.109241195
220	0x3e81d889	0.25360516
221	0xbce6a396	-0.028154176
222	0xbe44f995	-0.19235833
223	0xbe2ba718	-0.1676296
224	0x3c49892c	0.012300771
225	0x3f3b5526	0.731768
226	0xbe518531	-0.20460965
227	0xbe0a5f62	-0.13512948
228	0xbf0be1c0	-0.5464134
229	0xbe3b3fd6	-0.1828607
230	0x3e491fbf	0.19641016
231	0x3e37b6fb	0.17940895
232	0x3d58ef0d	0.05296235
233	0xbe973b5a	-0.2953747
234	0xbcaeb92d	-0.021328533
235	0xbc98d780	-0.018657446
236	0x3d2be5d7	0.04196724
237	0xbef99b67	-0.48751375
238	0xbcc7355b	-0.024317434
239	0x3f186b09	0.5953832
240	0x3db0413a	0.08606191
241	0x3d1449d2	0.036203213
242	0xbd87cb1a	-0.066305354
243	0xbedcdc86	-0.43136996
244	0x3d676f5e	0.056502692
245	0xbd9cf924	-0.07664707
246	0x3e4399f0	0.19101691
247	0x3ecfb1de	0.4056539
248	0x3e633daa	0.22191492
249	0xbcd8183d	-0.026378745
250	0xbe482ec2	-0.19549087
251	0x3e039137	0.12848364
252	0x3e499853	0.19687013
253	0x3e23349d	0.15938039
254	0x3e8c2722	0.27373606
255	0x3d958cd4	0.073022515
