app/src/main/ml/valence_model.tflite (tflite, 162792 bytes, 78 tensors)

fusion_32/bias f4 [32]
0	0xbd006f6f	-0.03135627
1	0xbd6c2cfb	-0.057660084
2	0xbdac1422	-0.084022775
3	0xbd66a9ef	-0.056314405
4	0xbc798d3f	-0.01523143
5	0xbd6f9b78	-0.058497876
6	0xbd0d5a81	-0.03451014
7	0xbc818f54	-0.015815414
8	0xbbfe3092	-0.007757255
9	0x3ca31bbd	0.019910688
10	0x3d580245	0.05273654
11	0x3c2f0464	0.010682199
12	0xbd893131	-0.06698836
13	0xbcb13a95	-0.02163438
14	0x3d6b952e	0.057515316
15	0x3dc5e17b	0.096621476
16	0x3dd621c6	0.104556605
17	0xbc856758	-0.01628463
18	0xbc9444af	-0.018099157
19	0x3da70e44	0.08157018
20	0xbdef819e	-0.116946444
21	0xbce48ab7	-0.027898176
22	0xbb813877	-0.0039434987
23	0xbc1d1592	-0.009587662
24	0xbc28b501	-0.010297061
25	0xbd09438c	-0.033511683
26	0xbcf0115e	-0.029305156
27	0xbaaba1fc	-0.001309454
28	0x3d47f598	0.0488182
29	0xbcffd879	-0.031231152
30	0xbb932645	-0.004490646
31	0xbc45b48e	-0.012066973

fusion_16/bias f4 [16]
0	0xbd94f7eb	-0.07273849
1	0xbac92b17	-0.0015347925
2	0x3d4df171	0.050279085
3	0xbd34b8e1	-0.044121627
4	0x3c139255	0.009007056
5	0xbd13fffb	-0.036132794
6	0xbc31f408	-0.010861404
7	0x3d7c32c6	0.06157186
8	0xbd6ba403	-0.05752946
9	0x3b55e3a6	0.003263691
10	0x3d1c0e5e	0.03809964
11	0x3cb8443b	0.022493472
12	0x3e470b16	0.19437823
13	0x3d761922	0.060082562
14	0xbbec7cc6	-0.0072170226
15	0xbc8731f2	-0.016503308

dense_2_categorical/bias f4 [8]
0	0xbbd5b6fe	-0.0065220585
1	0x3dc8fd3f	0.09813928
2	0x3c83d582	0.01609302
3	0xbd7f3136	-0.06230279
4	0xbc92a446	-0.017900597
5	0x3d2c6a9f	0.04209387
6	0xbd372446	-0.044712327
7	0x3de924f6	0.11384003

dense_1_categorical/bias f4 [16]
0	0xbc957378	-0.018243536
1	0x3da71af5	0.081594385
2	0xbd3f3e6f	-0.0466904
3	0xbd0fa6e3	-0.035071265
4	0xbc906951	-0.017628344
5	0xbcbf394e	-0.023342755
6	0xbd1424d3	-0.03616793
7	0xbcf114ac	-0.029428802
8	0xbd182a89	-0.03714994
9	0xbaa9a179	-0.0012941799
10	0x3c5048a9	0.012712636
11	0xbc473043	-0.012157503
12	0x3cbbce8c	0.022925638
13	0x3d27eba0	0.040996194
14	0x3da0864f	0.07838117
15	0x3d8c2478	0.06842893

emotion_recognition_model/tmp_representation/block_4_conv7/Conv1D f4 [2]
0	0x00000000	0.0
1	0x00000000	0.0

emotion_recognition_model/acc_representation/bottleneck/MatMul f4 [40, 32]
0	0x3e4d79a4	0.20065933
1	0x3d9e24d0	0.07721865
2	0xbe876588	-0.2644465
3	0xbe0c8e74	-0.13726217
4	0xbe86d4be	-0.26334184
5	0xbe91d0f6	-0.28479737
6	0xbdb3cfbe	-0.08779858
7	0xbdd25d9c	-0.10271761
8	0xbe579bce	-0.21055529
9	0xbc81f0e0	-0.015861928
10	0xbe2f972c	-0.17147511
11	0xbdf83d32	-0.12121047
12	0x3e3242c2	0.17408279
13	0xbe042e64	-0.12908322
14	0x3d952384	0.07282165
15	0xbe8d20a6	-0.2756397
16	0x3e55eac2	0.20890334
17	0xbe8a4e4d	-0.27012864
18	0x3e8b31f8	0.2718656
19	0x3db95e0c	0.09051141
20	0x3cb0d1e0	0.021584451
21	0x3e3e2da8	0.18572104
22	0x3dd65664	0.104656965
23	0xbddcb4fa	-0.10776706
24	0x3cfaf070	0.030632228
25	0xbe9107ff	-0.28326413
26	0xbdf0f45a	-0.11765356
27	0xbe8c8d6a	-0.2745164
28	0x3e5a7a10	0.21335626
29	0xbe30284a	-0.17202869
30	0x3e33500a	0.17511001
31	0x3d4dfde0	0.050290942
32	0x3e11158e	0.14168379
33	0x3e4c0f44	0.19927698
34	0xbd8f6a80	-0.07002735
35	0x3e92e1f8	0.28688025
36	0x3e412b54	0.18864185
37	0x3d95e594	0.07319179
38	0xbca92260	-0.020646274
39	0x3e40f22c	0.18842381
40	0xbca2fe40	-0.019896626
41	0x3e45d83c	0.19320768
42	0x3dcf3f08	0.10119444
43	0x3e56ed7a	0.20989028
44	0xbe478742	-0.1948519
45	0x3c8e53b0	0.01737389
46	0x3b979e00	0.0046269894
47	0x3d06ed00	0.032940865
48	0x3e83acfe	0.2571792
49	0x3e636f4c	0.22210425
50	0xbe581350	-0.21101117
51	0xbe7733c7	-0.24140845
52	0xbd21c8cc	-0.039498135
53	0x3cb18c30	0.021673292
54	0xbd6250bc	-0.055252776
55	0xbd49a044	-0.049225107
56	0x3b8c61c0	0.0042841136
57	0xbe1c9aee	-0.15293476
58	0xbd94bc52	-0.07262482
59	0xbe217c76	-0.15770134
60	0xbe6254ec	-0.22102708
61	0x3e91eb0a	0.28499633
62	0x3e1601d2	0.14649132
63	0x3e718d38	0.23589027
64	0x3e8e1d90	0.2775693
65	0xbe8544a3	-0.26028928
66	0xbe87465f	-0.26420876
67	0x3e07fbc8	0.1327964
68	0xbd9bb198	-0.07602233
69	0xbe518a72	-0.20462969
70	0x3e757428	0.23970091
71	0xbda01fc2	-0.07818557
72	0xbe1b209b	-0.15149157
73	0xbe24bbe6	-0.16087303
74	0xbdf4b6de	-0.11948942
75	0xbe82e371	-0.2556415
76	0xbc92b6f0	-0.017909497
77	0xbe48760c	-0.19576281
78	0x3e229c1c	0.15879864
79	0x3e449eae	0.19201156
80	0x3deb0d54	0.114771515
81	0x3d877044	0.0661321
82	0xbe8b7db8	-0.27244353
83	0x3e5db700	0.2165184
84	0xbe84a46e	-0.259067
85	0x3e62c4bc	0.2214536
86	0x3d9ee614	0.07758728
87	0x3c7f1940	0.015569985
88	0x3e939780	0.28826523
89	0x3e8be4e4	0.27323067
90	0xbe60512c	-0.21905965
91	0xbdaedb16	-0.08537881
92	0xbc364200	-0.011124134
93	0x3d0c96e0	0.034323573
94	0xbe6d8a2c	-0.2319724
95	0xbcbf1160	-0.023323715
96	0xbe782fae	-0.24236938
97	0xbd40b83c	-0.0470507
98	0x3de61990	0.112353444
99	0x3e7e5480	0.24836922
100	0xbe19fe7c	-0.15038484
101	0x3e6a5c98	0.22886884
102	0xbc6eb720	-0.014570028
103	0xbe525fcf	-0.2054436
104	0x3e9243b6	0.28567284
105	0x3dc6bf50	0.09704459
106	0x3c6e1a60	0.0145326555
107	0x3e24a860	0.16079855
108	0x3e4e9302	0.20173267
109	0xbdb78fba	-0.089629605
110	0xbe920443	-0.28518876
111	0xbe117794	-0.14205772
112	0x3e10489e	0.14090201
113	0x3d806104	0.06268504
114	0xbcaf9f70	-0.02143833
115	0xbe85ea74	-0.26155436
116	0xbdbb8ec2	-0.09158088
117	0xbd763204	-0.060106292
118	0xbc8b3f80	-0.016998053
119	0xbe352be2	-0.17692521
120	0x3dc0afe0	0.094085455
121	0x3e2944ce	0.16530153
122	0x3e859ae8	0.26094747
123	0x3d27e160	0.04098642
124	0xbd5abd48	-0.05340317
125	0xbe37f816	-0.17965731
126	0xbe2d0127	-0.16894971
127	0x3dc3c76c	0.09559521
128	0xbe6d55cc	-0.2317726
129	0xbdbe4186	-0.09289841
130	0x3e560e14	0.20903808
131	0xbe4680ac	-0.19385022
132	0x3c01e880	0.0079289675
133	0x3dfef530	0.124491096
134	0x3d623ff0	0.055236757
135	0xbe64e6fa	-0.22353736
136	0x3e40e390	0.18836808
137	0xbdafc84e	-0.08583127
138	0x3e068af8	0.1313895
139	0xbdf3a0d6	-0.118959114
140	0xbe52bdfe	-0.20580289
141	0xbe5e87df	-0.21731518
142	0x3dfd0a84	0.12355521
143	0xbdb96b40	-0.090536594
144	0xbe843cd3	-0.25827655
145	0xbd183b38	-0.03716585
146	0xbd3c9ffc	-0.04605101
147	0x3c93baa0	0.018033326
148	0x3d745970	0.059655607
149	0x3e45962e	0.1929557
150	0xbe624940	-0.22098255
151	0x3e4698a2	0.19394162
152	0x3e1fd66c	0.15609139
153	0xbceacbf0	-0.028661698
154	0xbd88b7c4	-0.066756755
155	0x3e6da790	0.23208451
156	0xbe05cb6e	-0.13065884
157	0x3deb2a44	0.11482671
158	0xbe087929	-0.13327469
159	0x3e73ca3c	0.23807615
160	0xbda2c21a	-0.07947178
161	0x3d4a0300	0.049319267
162	0x3dadcd50	0.08486426
163	0xbe237a43	-0.15964608
164	0xbe675262	-0.2259002
165	0xbe715da6	-0.2357088
166	0xbc4d3360	-0.012524456
167	0x3d87d44c	0.06632289
168	0xbdd3e2ac	-0.103459686
169	0xbe66236b	-0.22474448
170	0xbdf84146	-0.12121825
171	0xbb7eb800	-0.0038866997
172	0xbd0c9468	-0.03432122
173	0xbe172ae7	-0.1476246
174	0xbe4fe69e	-0.20302817
175	0xbe370423	-0.17872672
176	0xbdf11748	-0.11772019
177	0xbe023fdf	-0.12719677
178	0x3e8dbf8a	0.27685195
179	0x3d7b9050	0.061416924
180	0xbdffd6e6	-0.124921605
181	0x3b615680	0.0034383833
182	0x3e556d00	0.20842361
183	0x3e3b2c72	0.18278673
184	0x3e61c988	0.22049534
185	0xbdc3aa42	-0.095539585
186	0xbe172829	-0.14761414
187	0x3e31a0bc	0.17346472
188	0xbe070ac2	-0.13187698
189	0xbd838f82	-0.06423856
190	0xbc4db140	-0.012554467
191	0xbdddd9cc	-0.10832557
192	0x3e684238	0.2268151
193	0xbe1e247c	-0.15443605
194	0xbd4a9590	-0.04945904
195	0xbdf556fa	-0.1197948
196	0x3e3f3ed0	0.18676305
197	0xbd813ca8	-0.063103974
198	0xbe346c46	-0.17619428
199	0x3e4e0718	0.20119894
200	0x3dd3b934	0.10338059
201	0x3e037c02	0.12840274
202	0xbe53c8ff	-0.20682143
203	0x3e823ce6	0.25437087
204	0x3d2d0650	0.04224235
205	0x3bb2c0c0	0.0054551065
206	0xbd9ffcfa	-0.07811923
207	0xbe8e83cd	-0.2783493
208	0xbe7b1aa1	-0.24521877
209	0xbe8cb99e	-0.27485365
210	0x3d8e6908	0.06953627
211	0xbe916f09	-0.28405026
212	0x3d6497f0	0.05580896
213	0xbd42b7fc	-0.047538742
214	0xbe113f20	-0.14184237
215	0xbd501424	-0.050800458
216	0x3e3bf25e	0.18354174
217	0x3d3aad18	0.04557523
218	0xbd858232	-0.065189734
219	0x3da45a00	0.08024979
220	0xbda083e4	-0.07837656
221	0xbe06cb00	-0.13163376
222	0xbe0c57e9	-0.1370541
223	0x3d0f7630	0.03502482
224	0xbe511d58	-0.2042135
225	0x3e8970ca	0.26843864
226	0x3e1bd694	0.15218574
227	0x3d60c5e8	0.054876238
228	0xbe89230c	-0.2678455
229	0xbe6229a0	-0.22086191
230	0x3e467b9a	0.19383088
231	0x3d2ab3a8	0.04167524
232	0x3e5058f0	0.20346427
233	0x3dfb8624	0.12281445
234	0xbd142160	-0.03616464
235	0xbe668fe4	-0.22515827
236	0x3e82b6a2	0.25529963
237	0xbe82177c	-0.25408542
238	0xbe63c030	-0.22241282
239	0xbe614cb6	-0.22001919
240	0xbe6b4635	-0.22976
241	0x3e375d16	0.17906603
242	0x3d458ff8	0.048233002
243	0x3e6eb424	0.23310906
244	0xbc9f2b10	-0.019429713
245	0xbe21e274	-0.15809041
246	0x3e11cefe	0.14239118
247	0xbca44fe0	-0.020057619
248	0xbc5d3920	-0.013502389
249	0xbe558564	-0.20851666
250	0xbe305938	-0.17221534
251	0x3e90b0e8	0.2825997
252	0x3d1f8140	0.03894162
253	0x3b088b00	0.0020834804
254	0xbe2de833	-0.16983108
255	0xbe63e388	-0.22254765

emotion_recognition_model/bvp_representation/bottleneck/MatMul f4 [40, 32]
0	0x3e1a9d62	0.150991
1	0xbd8d608a	-0.06903179
2	0x3e7cc848	0.24685776
3	0xbdc6619a	-0.09686585
4	0xbcb63b80	-0.022245169
5	0x3d775fc0	0.06039405
6	0xbe00118a	-0.1250669
7	0xbdb41264	-0.0879257
8	0x3e861f1e	0.26195616
9	0x3d1f2e68	0.038862616
10	0xbe2895da	-0.16463414
11	0x3d943008	0.07235724
12	0x3e3fe000	0.18737793
13	0xbcb96a70	-0.022633761
14	0xbcc340b0	-0.023834556
15	0x3d786208	0.060640365
16	0xbcb6cc60	-0.02231425
17	0xbe36c194	-0.17847282
18	0x3e76aa48	0.24088395
19	0xbe8f1c89	-0.27951458
20	0x3e42ec3e	0.19035432
21	0xbd8b43d0	-0.068000436
22	0x3e338494	0.17531043
23	0xbe80f6d2	-0.2518831
24	0xbe077e97	-0.13231884
25	0xbe64f4fa	-0.22359076
26	0xbda27016	-0.07931535
27	0xbe814945	-0.25251213
28	0xbe8a945e	-0.2706632
29	0x3d3f2d40	0.046674013
30	0xbe8ae7da	-0.27130014
31	0x3e886c3e	0.26645082
32	0x3d9507ac	0.07276854
33	0x3d51f808	0.05126193
34	0xbe7d9f30	-0.24767756
35	0xbc804e30	-0.015662283
36	0xbe6380fc	-0.22217172
37	0x3e0a9730	0.13534236
38	0x3c7dfa00	0.015501499
39	0x3e3fdba8	0.18736136
40	0x3bc61540	0.0060450137
41	0xbe5d078e	-0.21584913
42	0xbd4285d4	-0.04749091
43	0x3ca67d00	0.020323277
44	0x3d89a6c0	0.06721258
45	0xbd9cac98	-0.07650107
46	0x3dbd00c4	0.09228662
47	0xbe6bd139	-0.23029031
48	0xbe172948	-0.14761841
49	0x3df2df00	0.1185894
50	0xbe62ad34	-0.22136384
51	0x3e78ed60	0.24309301
52	0x3e89b0a0	0.26892567
53	0x3da9a868	0.08284074
54	0x3e189d50	0.1490376
55	0xbe4c2b72	-0.19938448
56	0x3e632d88	0.22185338
57	0x3c770380	0.015076518
58	0x3dacca7c	0.08437058
59	0x3dda570c	0.10661134
60	0xbe38cb7c	-0.18046373
61	0x3e9309dc	0.2871846
62	0x3e8a6b98	0.27035213
63	0x3e8a6548	0.27030396
64	0x3e06bbd8	0.13157594
65	0xbd3b2834	-0.045692638
66	0x3e820722	0.25396067
67	0x3e649418	0.22322118
68	0xbddb0d2a	-0.1069587
69	0xbe57a67c	-0.21059602
70	0xbe80bf57	-0.2514598
71	0x3c8b2480	0.016985178
72	0x3e1a3916	0.15060839
73	0xbd80e72c	-0.062940925
74	0xbe202056	-0.15637335
75	0xbe7998be	-0.24374673
76	0xbe026e06	-0.12737283
77	0xbe48adac	-0.195975
78	0xbe3192b8	-0.17341125
79	0xbe30ec2c	-0.17277592
80	0xbe648a7e	-0.22318456
81	0xbda0a71c	-0.078443736
82	0xbe5e1598	-0.21687925
83	0x3def16b4	0.11674252
84	0x3e2a5634	0.16634446
85	0xbe8e35c0	-0.27775383
86	0x3e28d8f4	0.16489011
87	0x3e14f752	0.1454747
88	0x3de0490c	0.109514326
89	0xbe913cb3	-0.28366622
90	0x3dcd3280	0.10019398
91	0xbd560754	-0.052253082
92	0xbe492594	-0.19643241
93	0xbe9060ac	-0.28198755
94	0x3d489f48	0.048980027
95	0x3e683b64	0.22678906
96	0x3e2927be	0.16519067
97	0xbe8a7f8a	-0.2705043
98	0xbe273860	-0.16330099
99	0xbe52e35b	-0.20594542
100	0xbe6eabce	-0.23307726
101	0xbe17a9de	-0.14810893
102	0x3e936742	0.28789717
103	0x3e0174d8	0.12642229
104	0xbe02b423	-0.12764029
105	0xbda47666	-0.08030395
106	0xbe80b71c	-0.251397
107	0xbddeaa30	-0.108723044
108	0xbe50735e	-0.20356509
109	0x3e857a5e	0.2606992
110	0xbe48269c	-0.19545978
111	0x3d97a55c	0.07404587
112	0xbdbae040	-0.091248035
113	0xbe786725	-0.24258097
114	0xbe39851a	-0.1811718
115	0xbe15b238	-0.14618766
116	0xbe407238	-0.18793571
117	0xbe260707	-0.16213618
118	0x3c7cc7c0	0.0154284835
119	0xbdd16f7c	-0.10226342
120	0x3e23683c	0.15957731
121	0xbe4aaace	-0.1979172
122	0x3cd2a440	0.025713086
123	0xbe52a8c6	-0.20572194
124	0x3e0acd62	0.1355491
125	0x3d351f90	0.044219553
126	0x3df5029c	0.11963388
127	0xbcbe28c0	-0.02321279
128	0xbe0c0dd9	-0.13677157
129	0x3c5ef8a0	0.0136090815
130	0xbe83ed7e	-0.2576713
131	0x3e928df6	0.28623933
132	0x3d95d0cc	0.073152155
133	0xbd7852d0	-0.06062585
134	0x3e4763b8	0.19471633
135	0x3e11c262	0.14234307
136	0xbd75b7b0	-0.05998963
137	0xbe188625	-0.14894922
138	0xbe149adf	-0.14512204
139	0xbda0afc6	-0.07846026
140	0xbe08eb27	-0.13370954
141	0xbcbd0f20	-0.023078501
142	0xbd82869e	-0.063733324
143	0x3e74fc68	0.2392441
144	0xbc3698a0	-0.011144787
145	0xbe3dc392	-0.18531635
146	0xbd067450	-0.032825768
147	0x3e3f67ea	0.18691984
148	0x3e91d8d4	0.2848574
149	0xbd41e85c	-0.047340736
150	0xbe2e1046	-0.16998395
151	0xbdb2ad3a	-0.087244466
152	0x3dc5c328	0.09656364
153	0x3ddaea74	0.1068925
154	0xbe128809	-0.14309706
155	0xbe8af338	-0.27138686
156	0x3e560ee4	0.20904118
157	0xbdf31d6c	-0.11870846
158	0x3e690768	0.22756732
159	0xbe152ed6	-0.14568648
160	0xbd4660ac	-0.048432037
161	0xbe8afa0e	-0.27143902
162	0xbbac2800	-0.005253792
163	0x3db07aac	0.08617148
164	0xbe224efa	-0.1585044
165	0x3d4a1158	0.049332947
166	0xbe8bf976	-0.2733876
167	0xbdd08364	-0.10181311
168	0xbe03b3d9	-0.12861575
169	0x3e5148b6	0.20437893
170	0xbe6b32e7	-0.22968636
171	0xbd5b8c1c	-0.053600416
172	0x3cddacc0	0.027059913
173	0xbe1fffa1	-0.15624858
174	0x3d293d50	0.041318238
175	0xbe6746c8	-0.22585595
176	0x3dc58a40	0.0964551
177	0x3e0ec0f0	0.13940787
178	0x3e5b987c	0.21444887
179	0xbe21064e	-0.15725061
180	0x3cc49d90	0.024000913
181	0xbe5b3ae2	-0.21409181
182	0xbdc28f92	-0.0950004
183	0x3c03f0c0	0.008053005
184	0xbd9eee86	-0.077603385
185	0x3e5a40c4	0.21313769
186	0xbcd3e1a0	-0.025864422
187	0x3e8a6e24	0.27037156
188	0xbdd9cd74	-0.1063489
189	0x3d0073c8	0.031360418
190	0xbd7bb250	-0.06144935
191	0x3df35f2c	0.11883387
192	0x3d91c0b4	0.07116833
193	0xbe199a91	-0.15000369
194	0xbe79d3fa	-0.24397269
195	0x3dabec74	0.08394709
196	0xbe8297a8	-0.2550633
197	0x3c184780	0.009294391
198	0xbe88f365	-0.26748195
199	0xbdf30106	-0.118654296
200	0x3e416cd8	0.18889177
201	0xbe39cf9a	-0.181456
202	0xbe35f950	-0.17770886
203	0xbd7c49cc	-0.061593816
204	0x3de66fd0	0.11251795
205	0xbdb3eab2	-0.08784999
206	0xbbb48200	-0.0055086613
207	0xbc92b840	-0.017910123
208	0x3e514d28	0.20439589
209	0x3e1a1e6c	0.15050668
210	0x3d10b328	0.035327107
211	0xbc84e070	-0.016220301
212	0x3e2b3c8c	0.16722316
213	0xbe343e8e	-0.17601988
214	0xbe061c6c	-0.1309678
215	0x3e28a5f2	0.16469553
216	0xbd32923c	-0.04359649
217	0x3e480798	0.19534147
218	0x3e159858	0.14608896
219	0xbce07310	-0.027398616
220	0xbe8c3e38	-0.2739122
221	0x3d31d8e8	0.04341975
222	0xbe7bda6b	-0.24595039
223	0xbe24b8c7	-0.16086112
224	0xbd9ef454	-0.07761446
225	0xbe8007d2	-0.25005966
226	0x3e0b91a6	0.13629779
227	0x3e8ee6f8	0.2791059
228	0x3c9561b0	0.018235058
229	0x3e4cc410	0.19996667
230	0xbe363708	-0.1779443
231	0x3e258b54	0.1616643
232	0xbdb5bdce	-0.08874093
233	0x3e7a19b4	0.24423867
234	0x3e0c8184	0.13721281
235	0xbdc4cb7a	-0.096091226
236	0xbe7ac054	-0.2448743
237	0xbe514696	-0.20437083
238	0x3e0dfec0	0.1386671
239	0x3e8c6204	0.2741853
240	0xbd9dbc62	-0.07701947
241	0xbe779e5a	-0.241815
242	0x3e920e8c	0.28526723
243	0xbc40a8c0	-0.011758983
244	0xbd3aace0	-0.045575023
245	0xbdcc4940	-0.09974909
246	0x3dbf25cc	0.09333381
247	0x3e3e1d46	0.18565854
248	0x3e833e74	0.25633585
249	0xbe26438b	-0.16236703
250	0xbd844c72	-0.06459893
251	0xbd8c3982	-0.06846906
252	0xbcb419c0	-0.021984935
253	0xbe85b0f6	-0.26111573
254	0xbe100879	-0.14065732
255	0xbe0964e2	-0.1341739

emotion_recognition_model/eda_representation/bottleneck/MatMul f4 [40, 32]
0	0xbe859598	-0.26090693
1	0xbe228a3b	-0.15873043
2	0xbdd24f36	-0.102690145
3	0xbe87d150	-0.2652688
4	0xbddd9898	-0.108201206
5	0xbdc95294	-0.09830204
6	0xbd790b10	-0.060801566
7	0xbe5869d4	-0.2113412
8	0xbdffee9c	-0.12496683
9	0x3e3d253a	0.18471232
10	0xbe32d464	-0.17463833
11	0xbd9aa648	-0.07551247
12	0xbe3a1c06	-0.18174753
13	0x3e82b788	0.25530648
14	0x3d5742c8	0.052553922
15	0x3da1c644	0.07899144
16	0xbe4cb1b8	-0.1998967
17	0x3e4f0ae6	0.20219001
18	0xbd6189b4	-0.055062965
19	0xbe1ddc31	-0.15416028
20	0x3e7205dc	0.23635048
21	0x3e6127a8	0.21987784
22	0x3e5cc96c	0.21561211
23	0xbe903e18	-0.28172374
24	0xbdae8d2e	-0.08523022
25	0x3db40cdc	0.08791515
26	0x3e8fab94	0.2806059
27	0xbe8f5eae	-0.28001922
28	0xbe78074e	-0.24221537
29	0x3d9cfef0	0.07665813
30	0x3e134e8e	0.14385435
31	0xbe8f230a	-0.2795642
32	0x3cb14910	0.021641284
33	0x3d817fd0	0.063232064
34	0x3e5bc970	0.21463561
35	0xbe62e05a	-0.22155896
36	0x3db53310	0.0884763
37	0x3d987250	0.074436784
38	0x3e268ecc	0.1626541
39	0x3bef2e40	0.0072992146
40	0xbe08c9ef	-0.13358282
41	0x3dbdf918	0.092760265
42	0x3e8ecb80	0.27889633
43	0xbe724aa2	-0.23661283
44	0xbcb4d3a0	-0.022073567
45	0xbdbd44dc	-0.092416495
46	0xbe1d0edf	-0.15337704
47	0xbcf7caa0	-0.030247986
48	0xbc1c0b20	-0.009524137
49	0x3c4ff2e0	0.012692183
50	0x3d2eabd8	0.04264435
51	0x3e3d1e8a	0.18468681
52	0xbc46cd20	-0.012133867
53	0x3e62ac98	0.22136152
54	0xbe5df216	-0.2167438
55	0xbdd61f7a	-0.104552224
56	0xbe387072	-0.18011644
57	0x3d1fee10	0.039045393
58	0xbcbc2a10	-0.022969276
59	0xbe91d553	-0.28483066
60	0x3dbb7b90	0.09154427
61	0x3ddcabd0	0.10774958
62	0x3e8b88e8	0.2725289
63	0x3e0d200e	0.13781759
64	0xbe7cfd67	-0.2470604
65	0xbe881942	-0.2658177
66	0x3e806386	0.2507593
67	0xbd9d5644	-0.076824695
68	0xbdbb0a8c	-0.09132871
69	0xbe5f0098	-0.2177757
70	0x3ce0d070	0.02744314
71	0xbe06c0dc	-0.13159508
72	0xbdcc8c0c	-0.09987649
73	0xbe511c5e	-0.20420977
74	0x3d877e0c	0.066158384
75	0x3e73050c	0.23732394
76	0x3e694288	0.22779286
77	0x3e8660a6	0.26245612
78	0xbd16f0d0	-0.03685075
79	0xbe1ee299	-0.15516128
80	0x3dbc3178	0.09189123
81	0x3c8c6630	0.01713857
82	0x3e435f6c	0.1907937
83	0xbe6c493d	-0.23074813
84	0xbc8ed7a0	-0.017436802
85	0x3db45d20	0.08806825
86	0xbe493ffa	-0.19653311
87	0xbe660950	-0.2246449
88	0x3e7c2768	0.24624407
89	0x3d352128	0.044221073
90	0xbdd9644e	-0.10614835
91	0x3d7401c0	0.05957198
92	0xbe938d12	-0.28818566
93	0x3cb82820	0.02248007
94	0xbe579fae	-0.21057007
95	0x3dae5118	0.08511561
96	0xbdd09ad8	-0.10185784
97	0xbd418c90	-0.04725319
98	0xbce4e0b0	-0.02793917
99	0xbd727a78	-0.059198827
100	0x3e662a30	0.22477031
101	0xbe8deb31	-0.277185
102	0x3d177ae0	0.036982417
103	0x3e4275b4	0.18990213
104	0x3e3c928c	0.18415278
105	0x3e18b2d6	0.1491197
106	0xbe0a8552	-0.1352742
107	0xbc868f00	-0.01642561
108	0xbdd78450	-0.105232835
109	0xbccf5260	-0.025307834
110	0x3e375faa	0.17907587
111	0xbca13a80	-0.019681215
112	0xbe473117	-0.1945232
113	0xbe61e4b4	-0.220599
114	0x3e3b52ee	0.18293354
115	0xbe245f38	-0.16051948
116	0xbe140f96	-0.1445907
117	0x3e41be9c	0.18920368
118	0xbe7b23c2	-0.2452536
119	0xbe45db5f	-0.19321965
120	0xbe6c78d1	-0.23092963
121	0x3e365cd4	0.17808849
122	0xbe264f25	-0.16241129
123	0x3e8a6ebc	0.2703761
124	0xbe740850	-0.23831296
125	0xbe88a4d5	-0.26688257
126	0xbc76e360	-0.015068859
127	0xbe2fd582	-0.1717129
128	0x3cc20a60	0.023686588
129	0xbe56b838	-0.20968711
130	0x3ccbf900	0.024899006
131	0xbd00d558	-0.03145346
132	0xbd105950	-0.035241425
133	0x3d56b388	0.052417308
134	0x3dfb3f20	0.122678995
135	0xbe86c698	-0.2632339
136	0x3d833aac	0.06407675
137	0x3e58d830	0.21176219
138	0xbe661652	-0.22469452
139	0xbd857654	-0.0651671
140	0xbe2cc8d8	-0.16873491
141	0xbdf043c2	-0.11731674
142	0x3e80119e	0.2501344
143	0x3e88060a	0.26567107
144	0xbdef5f2a	-0.11688073
145	0x3e37b942	0.17941764
146	0xbba301c0	-0.004974574
147	0x3e330b3e	0.17484757
148	0x3e8e2f56	0.2777049
149	0xbe122824	-0.14273125
150	0xbdf8e34a	-0.12152727
151	0xbe38b956	-0.1803945
152	0x3e2a055a	0.16603604
153	0xbde5ba72	-0.11217202
154	0x3de0ffdc	0.10986301
155	0x3e46a31a	0.19398156
156	0x3e776028	0.24157774
157	0xbdf81a56	-0.12114398
158	0xbdeaabc8	-0.11458546
159	0xbd8ca80a	-0.068679884
160	0xbe833925	-0.25629535
161	0xbe0bd352	-0.13654831
162	0x3e088d42	0.13335136
163	0x3e8d1efe	0.27562708
164	0x3e0602f2	0.13087061
165	0xbd94562a	-0.07242997
166	0x3e6e0374	0.23243505
167	0xbdc50224	-0.09619549
168	0x3bafc180	0.005363643
169	0x3de520cc	0.11187896
170	0xbd056648	-0.032568246
171	0xbe06ed43	-0.13176446
172	0x3d4e8988	0.05042413
173	0x3d41bc40	0.04729867
174	0xbe1e1dd9	-0.15441073
175	0x3e4dc722	0.20095494
176	0xbe8bbf01	-0.27294162
177	0xbe31077d	-0.17288013
178	0x3d8feba4	0.07027367
179	0xbe32a918	-0.17447317
180	0x3e649de0	0.2232585
181	0xbdeed19a	-0.11661072
182	0x3d5b7968	0.05358258
183	0x3da64a28	0.08119613
184	0x3e33fbda	0.17576542
185	0xbdf26146	-0.1183496
186	0x3e85cdb2	0.26133496
187	0xbc25e900	-0.010126352
188	0xbe8cd3b3	-0.27505264
189	0x3e1dbfa6	0.1540514
190	0xbcf749e0	-0.030186594
191	0x3e0a4688	0.13503468
192	0x3e3ee448	0.1864177
193	0xbca91a70	-0.02064249
194	0x3b1c6880	0.0023865998
195	0x3c62f760	0.013852924
196	0x3e932ff0	0.2874751
197	0xbe861559	-0.26188162
198	0xbdc84134	-0.097780615
199	0x3a275c00	0.00063842535
200	0x3e57290e	0.21011755
201	0x3dd3325c	0.1031234
202	0x3dc90c80	0.09816837
203	0x3e555baa	0.20835748
204	0x3d78c9b0	0.06073922
205	0x3c962a50	0.018330723
206	0xbd9eb112	-0.07748617
207	0x3d5614c0	0.052265882
208	0xbe6173c2	-0.22016814
209	0xbe86b9ce	-0.26313633
210	0xbe17deee	-0.14831135
211	0xbe6ae171	-0.22937562
212	0xbe061121	-0.13092472
213	0x3e8a2302	0.26979834
214	0x3de17804	0.11009219
215	0x3e09aa46	0.1344386
216	0xbd0bac18	-0.03409967
217	0x3e83bc74	0.25729716
218	0x3c5c0000	0.013427734
219	0xbdea9258	-0.11453694
220	0xbd901d0a	-0.07036789
221	0x3e6b0cac	0.22954053
222	0xbe868e30	-0.26280355
223	0xbc197660	-0.009366602
224	0x3d6caba8	0.05778089
225	0x3dd2d740	0.10294962
226	0x3e461b8c	0.19346446
227	0x3deb1c00	0.1147995
228	0xbe610cea	-0.21977583
229	0xbe267504	-0.16255575
230	0x3e835e5a	0.25657922
231	0xbdab174e	-0.083540544
232	0xbd29cbfc	-0.0414543
233	0xbe144d46	-0.14482602
234	0x3c872ff0	0.01650235
235	0x3c81ad60	0.015829742
236	0x3d33a340	0.04385686
237	0x3cbdb4b0	0.023157448
238	0x3e397322	0.18110326
239	0x3d9447fc	0.072402924
240	0xbdacce3c	-0.084377736
241	0xbddb41d0	-0.10705912
242	0xbe5842f7	-0.21119295
243	0x3e31045e	0.17286822
244	0xbe83f0f0	-0.25769758
245	0x3d8cd100	0.06875801
246	0xbe2d6880	-0.16934395
247	0x3e226806	0.15859994
248	0x3d80f758	0.06297177
249	0x3e3d559e	0.18489692
250	0xbe5019a9	-0.20322289
251	0x3d8d7bdc	0.0690839
252	0xbe319ffb	-0.17346184
253	0x3e576388	0.21034062
254	0xba843900	-0.0010087788
255	0xbdc85a80	-0.097828865

emotion_recognition_model/tmp_representation/bottleneck/MatMul f4 [40, 32]
0	0x3e177f78	0.14794719
1	0x3db49f1c	0.0881941
2	0xbd32c090	-0.043640673
3	0xbe414db8	-0.18877304
4	0x3e27085e	0.16311786
5	0xbe91acf7	-0.28452274
6	0x3e7815e0	0.24227095
7	0x3c10ed60	0.008845657
8	0xbe3ddecb	-0.1854202
9	0xbe0e4d08	-0.13896573
10	0x3e0c6b0a	0.13712707
11	0xbe624a55	-0.22098668
12	0xbe53a1f0	-0.20667243
13	0x3d55c8e8	0.052193552
14	0x3e88e25a	0.26735193
15	0xbe16aa5f	-0.14713429
16	0xbd188810	-0.037239134
17	0x3df360b8	0.11883682
18	0xbe594b1a	-0.21220055
19	0xbe8f015d	-0.27930728
20	0xbe4c057c	-0.19923967
21	0xbd89724a	-0.06711252
22	0x3e2594b6	0.1617001
23	0x3d8fdcac	0.07024512
24	0xbda6f2c0	-0.0815177
25	0xbe64c9a8	-0.22342551
26	0x3e0921e0	0.13391829
27	0x3c3724e0	0.011178225
28	0xbe7cd9a9	-0.24692406
29	0x3e0f3a7c	0.13987154
30	0xbe2ff028	-0.17181456
31	0xbdce8e92	-0.10085787
32	0xbde14146	-0.10998778
33	0x3e5039fe	0.20334622
34	0x3e6ecd1c	0.2332043
35	0x3e31a3d2	0.17347649
36	0xbdf2b9d4	-0.1185185
37	0x3dd31770	0.10307205
38	0x3e8c9c54	0.2746302
39	0xbdbdc92e	-0.092668876
40	0x3e54b46e	0.20771953
41	0xbdb9b6aa	-0.090680435
42	0x3dff49d8	0.124652565
43	0x3c8bf230	0.017083257
44	0xbdc5bd9a	-0.09655304
45	0x3e37677e	0.17910573
46	0x3ddfc1bc	0.10925624
47	0xbe92457f	-0.28568646
48	0x3e54d90a	0.20785919
49	0xbdfeb47e	-0.1243677
50	0x3e3c9efe	0.18420026
51	0x3e2d9f46	0.16955289
52	0x3e7ab4a0	0.24482965
53	0x3e3a659e	0.18202826
54	0xbe06cc88	-0.1316396
55	0x3e49db08	0.1971246
56	0x3c31c5e0	0.0108504
57	0x3e78d7b0	0.24301028
58	0xbcab6300	-0.02092123
59	0xbe4cae25	-0.19988306
60	0x3e77e170	0.24207091
61	0x3e334b14	0.17509109
62	0xbe0f91dd	-0.14020486
63	0x3db7a4a8	0.089669526
64	0x3d642a60	0.055704474
65	0x3e2a9784	0.16659361
66	0xbe31daf6	-0.17368683
67	0x3e8a8846	0.27057093
68	0xbe5da3ed	-0.21644564
69	0xbbf27f80	-0.007400453
70	0x3df3d22c	0.119053215
71	0x3d539a50	0.051660836
72	0xbe8d55b8	-0.2760446
73	0xbbe95000	-0.0071201324
74	0xbc423e00	-0.011855602
75	0x3d86f540	0.065897465
76	0x3d3a1b38	0.045436114
77	0x3e24b39a	0.16084138
78	0x3d99821c	0.074955195
79	0x3e20093a	0.1562852
80	0x3e73abe8	0.23796046
81	0x3d35cc38	0.04438421
82	0x3e1d9e2e	0.15392372
83	0x3e5a0c14	0.2129367
84	0xbe906923	-0.28205213
85	0x3d3baff8	0.045822114
86	0x3e2c2ea8	0.16814673
87	0x3d967924	0.073473245
88	0x3e1cb85c	0.15304703
89	0x3e0c723c	0.13715452
90	0xbdfa9bfe	-0.122367844
91	0x3e296d3e	0.16545579
92	0xbe200ec4	-0.15630633
93	0xbd471bcc	-0.048610494
94	0xbe038e9c	-0.1284737
95	0x396fd000	0.00022870302
96	0xbe1b466c	-0.15163583
97	0x3d753770	0.059867322
98	0xbe79f551	-0.24409987
99	0x3e77422c	0.24146336
100	0xbd3e6680	-0.04648447
101	0xbe5fdad0	-0.21860814
102	0xbdd481a0	-0.103762865
103	0x3e425fa2	0.18981794
104	0x3e17623e	0.1478357
105	0xbe567057	-0.20941292
106	0x3dbe27cc	0.092849344
107	0xbcba8630	-0.022769064
108	0x3d77e388	0.060519725
109	0x3d8ddc90	0.069268346
110	0xbd97b27e	-0.074070916
111	0xbe6e3614	-0.23262817
112	0xbe90eb3f	-0.2830448
113	0x3c9a6e60	0.018851459
114	0xbe5363f1	-0.20643593
115	0xbdfe6b36	-0.124227926
116	0xbdb3bcf0	-0.08776271
117	0x3b588400	0.0033037663
118	0x3e3f0c4c	0.18657035
119	0xbd8f8d64	-0.0700939
120	0xbe3cf61a	-0.18453255
121	0x3d96e534	0.07367936
122	0x3e397704	0.18111807
123	0xbda4ce98	-0.08047217
124	0xbd09f9d8	-0.033685535
125	0x3df29198	0.11844176
126	0xbcadbd30	-0.021208376
127	0x3dd5c84c	0.10438594
128	0x3e1a2138	0.15051734
129	0xbe2d8ec4	-0.16948992
130	0xbe5b497b	-0.2141475
131	0xbe66b5ec	-0.22530335
132	0x3e4be024	0.19909722
133	0xbe3507f6	-0.17678818
134	0xbdf7fe7c	-0.12109086
135	0xbe8e6624	-0.27812302
136	0xbe8e738e	-0.27822536
137	0xbe131573	-0.14363651
138	0xbe15c742	-0.14626792
139	0xbdc4e730	-0.09614408
140	0x3e47c7cc	0.1950981
141	0x3e6f09d8	0.23343599
142	0x3e6cc8cc	0.23123473
143	0xbdc4f604	-0.09617236
144	0x3e71c5c8	0.23610604
145	0x3e695768	0.22787249
146	0xbd0ed0c8	-0.034867078
147	0xbd0c86e8	-0.034308344
148	0xbe131d7a	-0.14366713
149	0xbe91cedc	-0.28478134
150	0x3b067a00	0.0020519495
151	0xbbdbb3c0	-0.0067047775
152	0x3d2cb568	0.04216519
153	0xbe2b4166	-0.16724166
154	0xbd900ac8	-0.07033306
155	0x3d2d7a90	0.042353213
156	0x3c5f9100	0.013645411
157	0x3d30e928	0.043191105
158	0xbd93cba4	-0.07216576
159	0xbcbef460	-0.023309886
160	0x3df87974	0.1213254
161	0xbe02b5b0	-0.12764621
162	0x3ceecec0	0.02915132
163	0x3e800be4	0.25009072
164	0xbe44b6c4	-0.19210345
165	0xbe097572	-0.13423708
166	0xbe1464da	-0.14491597
167	0x3d7654c8	0.060139447
168	0x3e724fb4	0.23663217
169	0x3dc35de0	0.095393896
170	0xbe0c4a94	-0.13700324
171	0x3dff6198	0.124697864
172	0xbc9885c0	-0.018618464
173	0xbe2d9c02	-0.16954044
174	0x3e47d43e	0.19514558
175	0xbe8e749a	-0.27823335
176	0x3e8fd8da	0.28095132
177	0xbe8782bb	-0.26466927
178	0xbe6af8b3	-0.22946434
179	0x3def5df0	0.11687839
180	0xbe8aaaf3	-0.2708355
181	0x3e17de3e	0.14830872
182	0x3e0efcb2	0.13963583
183	0xbe712f92	-0.23553303
184	0x3e593e94	0.21215278
185	0x3e8cf210	0.2752843
186	0xbe92a430	-0.2864089
187	0xbe571232	-0.21003035
188	0xbded3d5a	-0.115839675
189	0x3e30f1da	0.17279759
190	0xbdbce26c	-0.09222874
191	0x3e36e220	0.17859697
192	0x3bd16cc0	0.006391138
193	0x3e2d2610	0.16909051
194	0x3dc70f6c	0.09719738
195	0x3e27dcde	0.16392848
196	0x3d779458	0.060444206
197	0xbe5eb7f9	-0.21749867
198	0x3ddace90	0.1068393
199	0x3e795088	0.24347126
200	0x3d39d4e0	0.04536903
201	0x3e19ad2c	0.15007466
202	0xbe81e689	-0.25371197
203	0x3e8b099a	0.27155763
204	0xbe869d29	-0.2629178
205	0x3e3c27fe	0.18374631
206	0x3a9a9d00	0.0011796057
207	0x3cfb0b70	0.030645102
208	0xbe3d5338	-0.18488777
209	0xbe61969e	-0.22030112
210	0x3dc74fb8	0.09732002
211	0x3e06550e	0.13118383
212	0x3dbd73f4	0.09250632
213	0x3c1e30c0	0.009655178
214	0xbe2cf572	-0.16890505
215	0x3c6126a0	0.013742119
216	0xbc914090	-0.017730981
217	0x3d0c9510	0.034321845
218	0x3d3ca2e0	0.046053767
219	0xbe051022	-0.12994435
220	0x3e6edab4	0.23325616
221	0xbc9968b0	-0.018726677
222	0x3dea89cc	0.11452064
223	0x3e35507e	0.17706487
224	0xbe1e5d08	-0.15465176
225	0xbe1c4954	-0.15262347
226	0x3e7a5cdc	0.24449486
227	0x3e2e9c56	0.17051825
228	0x3d23d8a8	0.04000154
229	0x3cb58580	0.022158384
230	0xbe639a22	-0.22226766
231	0xbe29a14f	-0.1656544
232	0x3e652db0	0.2238071
233	0xbe0e2f07	-0.13885127
234	0x3d14ce48	0.036329538
235	0xbdf9156a	-0.121622875
236	0xbe575fde	-0.21032664
237	0x3df5b5a8	0.11997539
238	0x3da66b94	0.08125988
239	0x3d9b4ba8	0.0758279
240	0xbc724de0	-0.014789075
241	0x3e7feacc	0.24991912
242	0x3c821930	0.015881151
243	0x3e477fea	0.19482389
244	0x3e7cd268	0.24689639
245	0x3e528912	0.205601
246	0x3e4dc8c6	0.2009612
247	0x3b0d3d00	0.0021551251
248	0x3d821588	0.06351763
249	0xbdd7d270	-0.10538185
250	0x3e4b3f2a	0.19848314
251	0x3ddaba80	0.10680103
252	0xbdf8a94e	-0.12141667
253	0xbcf199d0	-0.029492289
254	0x3e13e62e	0.14443275
255	0xbe65130e	-0.2237055

emotion_recognition_model/fusion_32/Tensordot/MatMul f4 [32, 40]
0	0xbe4f0c8c	-0.2021963
1	0xbe5c0478	-0.2148608
2	0x3e14b9d1	0.14524008
3	0x3e76f1d2	0.24115685
4	0x3ea00ea8	0.31261182
5	0x3d7d092f	0.061776336
6	0x3e3b4756	0.18288931
7	0xbe50cabb	-0.20389836
8	0x3deddee4	0.11614779
9	0xbd8b6d08	-0.068079054
10	0x3e31b466	0.17353973
11	0xbe854fe1	-0.26037505
12	0x3d2f8d2c	0.04285924
13	0x3d93685d	0.0719764
14	0x3d375fd2	0.044769116
15	0xbc65ff90	-0.014037982
16	0x3c451835	0.012029697
17	0x3e5776bc	0.21041387
18	0xbeaf2f27	-0.34215662
19	0x3d966e51	0.0734526
20	0xbe654e0a	-0.22393051
21	0xbe7a5061	-0.24444725
22	0xbe62574e	-0.22103617
23	0x3e3a823e	0.18213746
24	0xbdbe065c	-0.09278557
25	0xbdf62400	-0.12018585
26	0x3ea84212	0.32862908
27	0xbe18b03e	-0.14910981
28	0xbeacd669	-0.33757332
29	0xbe9a04af	-0.30081698
30	0x3d8c0f06	0.06838803
31	0xbe4aa133	-0.19788055
32	0xbd69e1c5	-0.057100076
33	0xbdbc632f	-0.09198605
34	0x3e62825b	0.22120039
35	0x3e7ad01c	0.2449345
36	0xbe4c15f6	-0.19930252
37	0x3e0d3414	0.13789397
38	0x3e88e146	0.2673437
39	0x3e129e85	0.14318283
40	0xbe09f44f	-0.13472103
41	0x3e1e3b2a	0.15452257
42	0xbce3e1f7	-0.02781771
43	0xbdb1161a	-0.08646794
44	0x3e619866	0.22030792
45	0x3dfda6c1	0.123853214
46	0x3e2f7859	0.17135753
47	0x3e24c668	0.16091311
48	0xbd00bac8	-0.03142813
49	0xbe52f85b	-0.20602553
50	0xbeafce3b	-0.3433703
51	0xbc86d36c	-0.016458236
52	0xbd3ba221	-0.045808915
53	0xbe1259de	-0.14292094
54	0xbeb782f5	-0.358421
55	0x3ee389f1	0.44441178
56	0xbf565d94	-0.8373654
57	0xbdf67352	-0.12033714
58	0x3ef967b9	0.48711947
59	0xbd6bf363	-0.05760516
60	0xbd45ebe5	-0.04832067
61	0xbcf667d6	-0.03007881
62	0xbea77ae7	-0.32710955
63	0xbdcd7dfa	-0.10033794
64	0xbe63692c	-0.22208089
65	0x3e014b1f	0.12626313
66	0x3ee8a2e5	0.4543678
67	0xbeba7e23	-0.3642436
68	0xbec4e7b2	-0.3845802
69	0x3eb923a8	0.36160016
70	0xbe4746f2	-0.19460657
71	0xbe81e8fe	-0.2537307
72	0xbe4ea219	-0.20179023
73	0x3db76ab3	0.08955898
74	0x3ed636c7	0.41838667
75	0xbe33f779	-0.17574872
76	0xbde0e5d1	-0.10981334
77	0xbe861e18	-0.26194835
78	0x3efbec82	0.4920388
79	0xbdaa534d	-0.083166696
80	0x3ce298e5	0.027660796
81	0xbe48f0a1	-0.19623043
82	0x3d7774d3	0.060414147
83	0x3ee50fe8	0.44738698
84	0x3e4cd686	0.20003709
85	0x3e503b8b	0.20335214
86	0xbe5fbb36	-0.21848759
87	0xbe942b6d	-0.2893938
88	0xbd6c1fb1	-0.05764741
89	0x3e21dc25	0.15806635
90	0xbe3f4328	-0.18677962
91	0xbe5207a7	-0.20510732
92	0x3e7fb668	0.24971926
93	0x3e1b9d71	0.15196778
94	0xbe3315a9	-0.17488731
95	0x3e0faf82	0.14031795
96	0xbe0a54d5	-0.13508923
97	0x3ea90024	0.3300792
98	0x3d81eec6	0.063443705
99	0xbdbb4fe5	-0.09146098
100	0x3eb33906	0.35004443
101	0x3eb02408	0.3440249
102	0x3efd9517	0.4952781
103	0xbe7e2e32	-0.2482231
104	0x3cff1828	0.031139448
105	0x3dde3877	0.108506136
106	0x3e2b40b1	0.16723897
107	0x3de43115	0.11142174
108	0xbeaac5be	-0.3335399
109	0xbde84358	-0.1134097
110	0x3dda671a	0.10664196
111	0xbe1d25ae	-0.15346405
112	0xbe9cfcc1	-0.30661586
113	0x3ee407ff	0.4453735
114	0x3dfae4d2	0.12250675
115	0xbe1208a8	-0.14261115
116	0xbd3ee40c	-0.0466042
117	0x3e3170ae	0.1732814
118	0x3d139f64	0.03604068
119	0xbdd42434	-0.10358468
120	0x3c4c012f	0.012451454
121	0x3de208ea	0.110368565
122	0xbe6470f9	-0.2230872
123	0xbe0b9b8e	-0.13633558
124	0x3ebdf040	0.3709736
125	0x3e0e43f7	0.13893114
126	0x3e3f2022	0.18664601
127	0xbeb12a75	-0.34602705
128	0x3e8589f9	0.26081827
129	0xbe589555	-0.21150716
130	0x3d21f01f	0.039535638
131	0xbe52619c	-0.20545048
132	0xbd6057d5	-0.054771263
133	0xbdc21715	-0.09477059
134	0x3d3fb72f	0.046805557
135	0x3e8d4124	0.2758876
136	0xbeb33309	-0.34999874
137	0x3e147fa4	0.14501816
138	0x3da03ce0	0.07824111
139	0xbeb8b088	-0.36072183
140	0xbe14295b	-0.14468901
141	0x3e8c1f13	0.27367458
142	0xbe5f6435	-0.2181557
143	0xbc751e53	-0.014960843
144	0x3ddd7a29	0.10814316
145	0x3e45dcca	0.19322506
146	0x3dd87403	0.105690025
147	0xbe5a3645	-0.21309765
148	0x3dc40be0	0.095725775
149	0xbe7885f3	-0.24269848
150	0xbe85339a	-0.2601593
151	0xbe141a97	-0.14463268
152	0x3e926ce0	0.2859869
153	0x3e6dc688	0.23220265
154	0x3cc00261	0.023438634
155	0xbe3d3b77	-0.18479715
156	0xbeaefc45	-0.3417684
157	0xbeafbaf9	-0.34322336
158	0xbebd3541	-0.36954692
159	0xbe6ee1e3	-0.23328356
160	0x3b4824a1	0.003053941
161	0xbd2ea4ff	-0.04263782
162	0xbe5a91f2	-0.21344736
163	0xbe84d06f	-0.25940272
164	0xbe097ac9	-0.13425745
165	0x3e0ffe92	0.14061955
166	0x3c496e29	0.012294331
167	0x3dc18859	0.094498344
168	0x3e6472c4	0.22309405
169	0xbe8c36d2	-0.27385575
170	0x3e9bc32e	0.30422348
171	0x3e3661e2	0.17810777
172	0x3d8c6a45	0.06856207
173	0x3e265653	0.16243868
174	0xbe52a337	-0.20570074
175	0xbeff6657	-0.49882767
176	0x3e8e5128	0.27796292
177	0x3cdc69c7	0.026905907
178	0x3ef1bd30	0.4721465
179	0xbe2a6432	-0.16639784
180	0xbea327b8	-0.3186624
181	0xbe76abd3	-0.24088983
182	0xbd7d0678	-0.061773747
183	0x3cd52ee1	0.02602333
184	0x3e01dd15	0.12681992
185	0xbeedc877	-0.46442005
186	0x3d6180e8	0.055054575
187	0x3e1da6b5	0.15395625
188	0x3e9e9513	0.3097311
189	0x3ee1dae6	0.4411232
190	0x3e4a3500	0.1974678
191	0xbe8711e1	-0.26380828
192	0x3d0b11c0	0.033952475
193	0xbe4a35d8	-0.19747102
194	0xbe3c1501	-0.18367387
195	0xbe4d2bf0	-0.20036292
196	0x3d3125c5	0.04324891
197	0xbe65142d	-0.22370978
198	0x3deaf32b	0.11472162
199	0x3ead5fb9	0.33862093
200	0x3e49f134	0.19720918
201	0xbe108041	-0.14111425
202	0xbead0b2b	-0.33797583
203	0xbe143711	-0.14474131
204	0x3e241f38	0.16027534
205	0x3e2ad3b7	0.16682325
206	0xba9d6f4a	-0.0012011316
207	0xbd8009e3	-0.06251886
208	0x3d845df3	0.06463232
209	0x3e58593c	0.2112779
210	0x3ec6f481	0.38858417
211	0x3e77955e	0.24178073
212	0x3e457f6b	0.19286887
213	0x3e858029	0.2607434
214	0xbd91f854	-0.07127443
215	0xbf5a74dd	-0.8533457
216	0x3d4aeb25	0.049540658
217	0xbc5b0b15	-0.013369341
218	0x3f0792a8	0.52958155
219	0xbe205561	-0.1565757
220	0xbc226f0a	-0.009914169
221	0x3ea4ef8b	0.32214007
222	0xbe4645d3	-0.19362573
223	0x3ded77ae	0.11595093
224	0x3cbe8384	0.02325607
225	0xbe7d1424	-0.24714714
226	0xbd272fa7	-0.04081693
227	0xbe83a906	-0.25714892
228	0x3e6a6310	0.22889352
229	0x3ea8224e	0.32838672
230	0x3d82356b	0.06357845
231	0x3e507b21	0.2035947
232	0xbd8ac607	-0.06776052
233	0xbdd4c7de	-0.10389684
234	0x3dee42f9	0.11633868
235	0x3e29b4ec	0.16572922
236	0x3e84d474	0.2594334
237	0x3e390a73	0.18070392
238	0x3df5ceb9	0.1200232
239	0xbe6735a1	-0.22579052
240	0xbdecbebd	-0.11559818
241	0x3de8136b	0.11331829
242	0xbdf96c4d	-0.1217886
243	0xbca21ef6	-0.019790154
244	0xbe87b348	-0.26503968
245	0x3e8b110c	0.27161443
246	0x3da764ff	0.0817356
247	0xbe86b7c0	-0.26312065
248	0x3ea484ce	0.32132572
249	0xbeacd052	-0.33752686
250	0xbe931695	-0.28728166
251	0x3d064299	0.032778356
252	0xbdca51e5	-0.098789014
253	0xbe329026	-0.17437801
254	0xbbc6685c	-0.006054921
255	0xbb211bb2	-0.0024583158

emotion_recognition_model/fusion_16/Tensordot/MatMul f4 [16, 32]
0	0xbd9c4398	-0.0763008
1	0x3e352ed1	0.1769364
2	0x3d2858fc	0.041100487
3	0xbeb976e2	-0.36223513
4	0x3e4e2c27	0.2013403
5	0xbe83dc04	-0.25753796
6	0x3e580f2e	0.2109954
7	0x3d4a31be	0.049363844
8	0xbe77ab39	-0.2418641
9	0xbeaf88e9	-0.34284142
10	0xbdfb14bf	-0.122598164
11	0xbe25cd53	-0.16191606
12	0xbe0111c1	-0.12604429
13	0xbdd19e81	-0.1023531
14	0x3d9176b2	0.071027175
15	0xbe28ff6b	-0.16503684
16	0x3e76cfd9	0.24102725
17	0x3cb4ad40	0.022055268
18	0xbdd47a52	-0.10374893
19	0xbea9c857	-0.3316066
20	0x3e815182	0.25257498
21	0x384b272e	4.843546e-05
22	0x3db676fe	0.08909415
23	0xbe929b56	-0.28634137
24	0x3eb94d6d	0.36191884
25	0xbd86b5a9	-0.06577618
26	0xbe9df211	-0.30848745
27	0xbebe924b	-0.37220988
28	0xbe8e1fce	-0.2775864
29	0x3e293e31	0.1652763
30	0xbea80678	-0.32817435
31	0x3e9b4d1d	0.3033227
32	0x3e6e5fa7	0.23278676
33	0x3dcb82c4	0.09937051
34	0x3e6c94db	0.23103659
35	0xbcfd09f8	-0.030888543
36	0x3eb12186	0.3459589
37	0x3e78da3c	0.24302
38	0x3d36f13e	0.04466366
39	0x3f00fa3e	0.5038184
40	0x3ee0c47f	0.43899915
41	0xbe1baaa7	-0.15201817
42	0xbed75e0e	-0.42063946
43	0xbdc74b26	-0.0973113
44	0xbdd1d21c	-0.10245153
45	0xbf27146d	-0.6526554
46	0xbe07e7cf	-0.13272022
47	0xbeaa70c5	-0.3328916
48	0xbe6d2352	-0.23158005
49	0xbda84028	-0.08215362
50	0x3e85ca8e	0.261311
51	0xbea9b894	-0.33148634
52	0x3d2d9f91	0.042388503
53	0xbeae27c6	-0.3401472
54	0xbea93c42	-0.33053786
55	0xbe994b9a	-0.29940492
56	0xbe415eaf	-0.18883775
57	0xbdeba57c	-0.11506173
58	0xbda4c3a5	-0.08045129
59	0x3e6e9989	0.23300757
60	0x3e57b5ce	0.21065447
61	0xbea45954	-0.32099402
62	0x3eabb50d	0.33536568
63	0xbef14420	-0.47122288
64	0xbe206ea9	-0.15667213
65	0xbea107c0	-0.31451225
66	0x3eb8b839	0.3607805
67	0xbe86c9c1	-0.263258
68	0xbe49542d	-0.19661017
69	0xbea6c63c	-0.32573116
70	0xbe520a3c	-0.20511717
71	0xbed2ea71	-0.4119449
72	0xbce41b0b	-0.027844926
73	0x3ec3e318	0.38259196
74	0x3ecf6e56	0.40513867
75	0xbd52bdd7	-0.051450577
76	0x3e404180	0.18774986
77	0x3dd23efb	0.10265919
78	0x3e2b5d1f	0.16734742
79	0xbe3acbb0	-0.18241763
80	0x3cad7e70	0.021178454
81	0x3edf07bb	0.43560585
82	0x3e893028	0.26794553
83	0x3ed019c2	0.40644652
84	0xbb077389	-0.002066823
85	0x3e9b8e49	0.30381992
86	0x3ec58311	0.38576558
87	0xbd336d6b	-0.04380552
88	0x3cdcd290	0.026955873
89	0x3d1d1a2c	0.038355038
90	0xbe87a647	-0.26494047
91	0xbe954941	-0.2915745
92	0x3cff4a1c	0.031163268
93	0x3dd2b91e	0.102892146
94	0x3de6cd37	0.112696104
95	0xbe2a3359	-0.1662115
96	0x3d4be879	0.04978225
97	0xbe3f3d40	-0.18675709
98	0xbe6a0c7c	-0.22856325
99	0xbe4cec2a	-0.20011964
100	0x3e67af3b	0.22625439
101	0x3e519bbb	0.20469563
102	0x3e3e40a6	0.18579349
103	0x3eaa7ae5	0.33296886
104	0x3e129602	0.14315036
105	0x3dbf9b02	0.09355737
106	0xbe77bb78	-0.24192607
107	0xbe9b8a4d	-0.30378953
108	0xbda91873	-0.082566164
109	0xbd59e36b	-0.0531954
110	0x3e54204e	0.20715448
111	0xbea25b32	-0.31710202
112	0xbea09a98	-0.31367946
113	0x3d835f5e	0.06414674
114	0xbeb807eb	-0.3594354
115	0x3e4db2cc	0.20087737
116	0xbd8b1f34	-0.06793061
117	0xbdae931e	-0.08524154
118	0xbf1357f9	-0.5755611
119	0xbe4718bd	-0.1944303
120	0x3db72913	0.08943381
121	0x3e742c74	0.23845083
122	0x3d418f8c	0.047256038
123	0x3b4d0a44	0.0031286636
124	0x3e5da661	0.216455
125	0x3d5cc455	0.053898174
126	0x3cbd159f	0.023081599
127	0x3dcc4fb8	0.09976143
128	0x3ed85bf5	0.42257658
129	0xbe0a3dcc	-0.13500136
130	0xbd9ed97f	-0.07756328
131	0xbe2cf36a	-0.1688973
132	0x3ddcfc20	0.107902765
133	0xbc8e3128	-0.017357424
134	0x3d8da7dc	0.06916782
135	0xbec6c565	-0.38822475
136	0xbe536357	-0.20643364
137	0xbef233ab	-0.47305045
138	0xbe2f10bf	-0.17096232
139	0x3ea9ce9a	0.33165437
140	0xbdedd8eb	-0.116136394
141	0xbe99feb6	-0.30077142
142	0xbc9efb2b	-0.019406876
143	0xbeaffafd	-0.34371176
144	0xbe3ef6bb	-0.18648808
145	0x3e7c5943	0.24643426
146	0x3e4cc069	0.19995274
147	0x3e61e29f	0.22059105
148	0xbe81d2f0	-0.25356245
149	0xbe5febe7	-0.21867333
150	0xbe899b16	-0.26876134
151	0x3e9de00b	0.30834994
152	0xbedc7b75	-0.4306294
153	0x3e935c5b	0.287814
154	0xbd48f0f1	-0.049057905
155	0x3dbc7514	0.092020184
156	0x3eb049d6	0.34431332
157	0x3d59484a	0.053047456
158	0x3dde5a86	0.1085711
159	0x3e301edd	0.17199273
160	0xbdf42404	-0.11920932
161	0x3e860f15	0.26183382
162	0x3eb7c5d5	0.3589312
163	0xbe3d29db	-0.18472998
164	0x3de57d01	0.11205483
165	0x3ddc664d	0.107617
166	0x3e9c5834	0.30536044
167	0x3e1814ab	0.14851634
168	0xbdb85c87	-0.09002023
169	0xbe6a73df	-0.22895764
170	0x3dcf9c2e	0.10137211
171	0xbdff9654	-0.12479845
172	0x3e33f9c6	0.1757575
173	0xbf06a8eb	-0.526015
174	0x3ecfee82	0.40611655
175	0xbe9b39cc	-0.30317533
176	0x3e901026	0.2813732
177	0xbeb32eb2	-0.34996563
178	0xbe7116a0	-0.23543787
179	0x3e35bd20	0.17747927
180	0x3ec1d32c	0.37856424
181	0x3ee55186	0.4478876
182	0xbca25e17	-0.019820256
183	0x3e6a816e	0.22900936
184	0xbd9df29b	-0.07712289
185	0xbe323a6e	-0.17405102
186	0x3dff2517	0.12458246
187	0x3df7842b	0.12085756
188	0xbe988bd0	-0.29794168
189	0x3f2b3f83	0.66893786
190	0xbc6b3ce1	-0.014357776
191	0x3e6f050d	0.2334177
192	0x3d6e3078	0.058151692
193	0xbdd56fb3	-0.104216956
194	0xbea0cbcd	-0.31405488
195	0x3d6874ca	0.056752004
196	0x3e2f32b6	0.17109188
197	0x3e27fbf0	0.164047
198	0x3dbe1cad	0.09282813
199	0x3cc85ab8	0.02445732
200	0xbe6b637c	-0.22987169
201	0x3de4d64c	0.111736864
202	0x3dc4486c	0.09584126
203	0x3ea3f6f6	0.32024354
204	0xbe9c5e1b	-0.30540547
205	0xbe571503	-0.21004109
206	0xbe77fb45	-0.24216945
207	0xbdc4a5dc	-0.09601948
208	0x3e910518	0.283242
209	0xbe886cb9	-0.2664545
210	0xbe829d7a	-0.2551077
211	0xbd928024	-0.07153347
212	0xbea24aaa	-0.3169759
213	0x3de5b7b0	0.11216676
214	0x3e8cfd01	0.27536777
215	0x3e28a0fa	0.16467658
216	0xbe0fa774	-0.14028722
217	0x3e11c88a	0.14236656
218	0xbdb82b94	-0.08992687
219	0xbdd6271d	-0.10456679
220	0xbe96727b	-0.29384217
221	0xbeb5cd43	-0.35508165
222	0xbe2c40a9	-0.16821541
223	0xbc978970	-0.018498152
224	0xbe264918	-0.1623882
225	0x3db055ad	0.08610091
226	0xbafbd596	-0.0019213434
227	0x3e81d5f1	0.25358537
228	0x3e06757c	0.13130754
229	0xbe583b50	-0.21116376
230	0x3e5da56a	0.21645132
231	0x3ec0d3cf	0.37661597
232	0x3e8d56d1	0.27605298
233	0xbcb1c9f3	-0.021702742
234	0xbdaabb40	-0.08336496
235	0xbdaeed4f	-0.08541357
236	0x3d910e0d	0.07082758
237	0x3dd0cfc6	0.1019588
238	0x3e92c1de	0.28663534
239	0xbe466386	-0.19373903
240	0x3e8a2d8b	0.26987872
241	0xbdc0abc6	-0.09407763
242	0xbe6b360a	-0.22969833
243	0x3cef4a57	0.029210253
244	0xbe1d9164	-0.15387493
245	0xbefae331	-0.49001458
246	0x3daef830	0.08543432
247	0xbe89db35	-0.26925054
248	0x3e871091	0.26379827
249	0xbe763cc3	-0.24046616
250	0x3dc94f6d	0.098296024
251	0x3eadb88c	0.3392986
252	0x3dcba84f	0.09944212
253	0xbef3e046	-0.47632045
254	0x3dd7eec6	0.10543589
255	0xbe52662b	-0.20546786

emotion_recognition_model/dense_1_categorical/MatMul f4 [16, 64]
0	0x3e44c2b6	0.19214901
1	0xbd19d7b2	-0.03755922
2	0x3e18bbd0	0.14915395
3	0xbd7324c6	-0.05936124
4	0x3e22a75e	0.15884158
5	0x3eb54e0c	0.35411108
6	0xbe83c960	-0.25739574
7	0x3e1f7e7a	0.1557559
8	0x3e6d5325	0.23176248
9	0x3df2a388	0.11847597
10	0xbebd6820	-0.36993504
11	0xbe054032	-0.1301277
12	0xbd3ab388	-0.04558137
13	0x3e31111a	0.1729168
14	0x3e03c4f4	0.128681
15	0x3d83b36e	0.06430708
16	0x3e5a975c	0.21346802
17	0xbd2767de	-0.04087054
18	0x3df97162	0.12179829
19	0x3ce97ac0	0.028500915
20	0xbe36387e	-0.17794988
21	0x3dee84d0	0.11646426
22	0xbe57a85e	-0.2106032
23	0xbe36c811	-0.17849757
24	0x3e9e0209	0.30860928
25	0xbdaa838b	-0.08325871
26	0xbe5cda28	-0.21567595
27	0xbe66a273	-0.22522907
28	0x3e946af2	0.28987843
29	0xbd643f7b	-0.055724602
30	0xbd853fed	-0.065063335
31	0x3c5f7eda	0.013641084
32	0xbd0b46c9	-0.034003053
33	0x3dbc7ab7	0.092030935
34	0x3ee3b860	0.44476604
35	0xbb87b459	-0.004141372
36	0xbe72ae94	-0.23699409
37	0xbe699512	-0.22810772
38	0xbe514c14	-0.20439178
39	0x3e221499	0.1582817
40	0xbc2080ba	-0.009796316
41	0xbe0e1c9b	-0.138781
42	0x3e9b163f	0.3029041
43	0x3e0a7a51	0.13523223
44	0xbd751234	-0.059831813
45	0x3f1d809b	0.6152436
46	0xbbc6cb00	-0.00606668
47	0x3e0ca657	0.13735329
48	0xbdd25cb1	-0.10271586
49	0xbe53a3fc	-0.20668024
50	0xbecbb5ff	-0.3978729
51	0x3cf40abe	0.029790279
52	0xbe84b090	-0.25915956
53	0x3d96bd43	0.073603176
54	0xbd77ce6d	-0.060499597
55	0xbe972694	-0.2952162
56	0xbd91b091	-0.071137555
57	0x3e98cb6e	0.29842705
58	0x3dc61c88	0.09673411
59	0xbe609d3d	-0.21934982
60	0xbe943a38	-0.28950667
61	0x3e016a90	0.12638307
62	0xbd2556ca	-0.04036597
63	0x3e67971a	0.22616234
64	0x3c1eaf29	0.009685316
65	0xbe04d7cb	-0.12972943
66	0x3ed80e4b	0.42198405
67	0x3e2dab06	0.16959772
68	0x3d3a67f3	0.04550929
69	0x3dd7ab15	0.10530678
70	0x3e70afb0	0.2350452
71	0x3da54fbf	0.08071851
72	0xbe2753e1	-0.16340591
73	0x3e010bce	0.1260216
74	0x3dbbf774	0.09178057
75	0xbd1c4944	-0.03815581
76	0xbc3b0812	-0.011415498
77	0x3ddfec9a	0.109338
78	0x3d8f8096	0.07006948
79	0xbcd78900	-0.026310444
80	0xbdd0f5ce	-0.102031335
81	0xbda885a1	-0.08228613
82	0x3d5da2bb	0.05411027
83	0x3de48b20	0.111593485
84	0xbde12b8c	-0.10994634
85	0xbd268ce0	-0.040661693
86	0x3d97b188	0.07406908
87	0x3e741906	0.2383767
88	0xbe108ad2	-0.14115456
89	0xbea38237	-0.31935284
90	0x3df317a0	0.118697405
91	0x3df004cc	0.11719665
92	0xbe9f843b	-0.3115557
93	0xbe0f3d29	-0.13988174
94	0x3e75243b	0.23939602
95	0xbdbbafcf	-0.09164392
96	0x3e3460f5	0.17615111
97	0x3ea85f86	0.3288538
98	0xbec49b17	-0.38399574
99	0x3e2072b4	0.15668756
100	0xbe9582a9	-0.29201248
101	0x3d2d5192	0.04231412
102	0x3d7387b9	0.059455607
103	0x3e62baa1	0.22141506
104	0x3e0f52bd	0.13996406
105	0xbec2f5c4	-0.3807813
106	0xbdc13fd9	-0.09436006
107	0x3d50f802	0.05101777
108	0x3e53d4c6	0.20686635
109	0xbf4615ef	-0.7737722
110	0xbd940546	-0.07227568
111	0xbe62c5eb	-0.22145812
112	0x3e705141	0.23468496
113	0xbdae1939	-0.085009046
114	0x3e8df12c	0.27723062
115	0x3e0e2de5	0.13884695
116	0x3da921f7	0.082584314
117	0xbd3a3521	-0.045460824
118	0xbdee3b88	-0.116324484
119	0x3e21c3af	0.15797304
120	0x3e3bd800	0.18344116
121	0xbec41f55	-0.38305154
122	0xbe69f589	-0.2284757
123	0x3de68190	0.11255181
124	0x3ed51c10	0.41622972
125	0x3e0bfd5a	0.13670865
126	0xbd9fd824	-0.078048974
127	0xbe028dc0	-0.12749386
128	0xbe2bc48e	-0.16774198
129	0xbe0c3f56	-0.13696036
130	0xbe6831a4	-0.22675186
131	0x3e0954bc	0.1341123
132	0xbd23b6b4	-0.03996916
133	0x3ab6008f	0.0013885665
134	0xbc76a0c0	-0.015052974
135	0xbc2e7920	-0.010648996
136	0x3e01126e	0.12604687
137	0x3df6ad6d	0.12044797
138	0xbe25ae4d	-0.16179772
139	0x3e71c2b4	0.2360943
140	0xbd1f1620	-0.03883946
141	0xbe55fe52	-0.20897797
142	0xbe779b07	-0.24180232
143	0xbe364f71	-0.17803742
144	0xbe0cd8c0	-0.13754559
145	0x3c8ca860	0.017170131
146	0x3e20433e	0.15650651
147	0xbe57f446	-0.21089277
148	0x3e6d2c28	0.23161376
149	0xba1ff400	-0.00061017275
150	0xbe7113ed	-0.23542757
151	0xbe29bee3	-0.16576724
152	0xbdc634b6	-0.096780226
153	0x3e57a1c2	0.210578
154	0x3e6368a8	0.22207892
155	0xbd37d55b	-0.044881206
156	0x3d2cebe8	0.042217165
157	0xbb618500	-0.003441155
158	0xbe13f46a	-0.14448705
159	0xbe73bb83	-0.23801999
160	0xbe7e0064	-0.24804837
161	0x3dd4c68c	0.10389432
162	0xbe637ebe	-0.22216317
163	0xbe3067a7	-0.1722704
164	0xbe7241bd	-0.2365789
165	0xbe1aac4d	-0.1510479
166	0xbe1b929a	-0.15192643
167	0x3da4cc7d	0.080468155
168	0xbe039d96	-0.12853083
169	0xbe2029a0	-0.15640879
170	0x3bdbfdee	0.0067136204
171	0xbcd43b63	-0.025907224
172	0xbe869cbe	-0.2629146
173	0xbd998d79	-0.07497687
174	0xbe4890cf	-0.1958649
175	0xbdf2d529	-0.11857063
176	0xbd986746	-0.07441573
177	0x3e29c2be	0.16578194
178	0x3d670aa7	0.056406643
179	0x3e8152e3	0.2525855
180	0xbe5c1fd0	-0.2149651
181	0xbe2f5086	-0.17120561
182	0xbc672ca0	-0.0141097605
183	0xbd8e8493	-0.0695888
184	0x3e063938	0.13107765
185	0x3db0f914	0.08641258
186	0xbd843404	-0.06455234
187	0x3d1f5eab	0.03890864
188	0xbd6e34e7	-0.05815592
189	0xbe622102	-0.22082904
190	0x3e64cfda	0.22344914
191	0xbc30d2e3	-0.010792467
192	0xbda17972	-0.07884492
193	0x3bd99780	0.0066403747
194	0x3baecb9f	0.005334332
195	0xbd617d4c	-0.055051133
196	0xbb9741c0	-0.0046159923
197	0x3d162632	0.03665752
198	0xbe4206d6	-0.1894792
199	0x3e4d65ad	0.20058317
200	0x3d403f8a	0.046935596
201	0x3d48c2b2	0.0490138
202	0x3d328a90	0.043589175
203	0x3d70d2b0	0.058794677
204	0xbd0f0c30	-0.034923732
205	0x3dfeb7c8	0.12437397
206	0xbdde74d9	-0.10862131
207	0xbe74c225	-0.23902185
208	0xbe509dd8	-0.20372713
209	0x3e631f70	0.22179961
210	0xbdb86d46	-0.09005217
211	0xbe562fb6	-0.20916638
212	0x3d251918	0.040307134
213	0x3db31170	0.0874356
214	0x3e6d03f8	0.23146045
215	0x3e4305d8	0.19045198
216	0x3d456f65	0.048201937
217	0xbdff561b	-0.12467595
218	0xbe76cbd6	-0.24101195
219	0xbe60a849	-0.21939196
220	0x3e343964	0.17600018
221	0xbd233914	-0.039849356
222	0x3e2de00d	0.1698
223	0xbe5e95e4	-0.21736866
224	0xbd7c63b0	-0.061618507
225	0xbe714f40	-0.23565388
226	0xbe0d0fc3	-0.13775544
227	0xbe451e55	-0.19249852
228	0x3de49304	0.111608535
229	0x3d98c900	0.07460213
230	0xbe3284be	-0.1743345
231	0xbe4ca937	-0.19986425
232	0x3e4a6220	0.19763994
233	0xbdcd38cc	-0.10020599
234	0xbccc4ac0	-0.024937987
235	0xbd9aaf64	-0.07552984
236	0x3d97d600	0.07413864
237	0xbdeaeb90	-0.11470711
238	0xbdc42f00	-0.09579277
239	0xbe2c1275	-0.16803916
240	0xbe08cf32	-0.13360289
241	0x3e8a1310	0.2696767
242	0xbe4e05bb	-0.20119374
243	0xbe5ac1ea	-0.21363035
244	0xbe464b94	-0.19364768
245	0xbe211210	-0.15729547
246	0x3e1e3bba	0.15452471
247	0xbdef9124	-0.11697605
248	0xbd9763b0	-0.07392061
249	0x3d5759c8	0.052575856
250	0x3d1db228	0.03849998
251	0xbe3af01e	-0.1825566
252	0x3de44492	0.11145891
253	0xbe7f678b	-0.24941842
254	0xbe9acf80	-0.30236435
255	0xbe2cba9b	-0.1686806
